model/model.pt (torch, 542388 bytes, 6 tensors)

conv1.weight f4 [64, 3, 5, 5]
0	0x3c6ec835	0.0145741
1	0x3c869dce	0.016432669
2	0x3d1bf81d	0.038078416
3	0x3da7431b	0.08167096
4	0xbc4d40f9	-0.012527698
5	0xbc2f48a3	-0.01069847
6	0x3de97e7b	0.11401077
7	0xbda86dab	-0.082240425
8	0x3d28a8a6	0.04117646
9	0xbd86b9f8	-0.065784395
10	0xbd9f9b5c	-0.07793304
11	0xbd51967f	-0.051168915
12	0x3cf02796	0.029315751
13	0x3de9a897	0.11409109
14	0x3d19c3d4	0.037540272
15	0xbdc6af0d	-0.09701357
16	0x3d23aaf0	0.03995794
17	0xbd08284a	-0.033241548
18	0x3d53a3aa	0.051669754
19	0xbc2c6ee0	-0.010524482
20	0x3d8d6338	0.0690369
21	0xbdb462ff	-0.088079445
22	0xbce8a460	-0.028398693
23	0xbdcc72d0	-0.09982836
24	0x3d51f783	0.051261436
25	0x3da7d068	0.08194047
26	0xbd05c278	-0.032656163
27	0x3d50bf0f	0.050963458
28	0x3de6335a	0.11240263
29	0xbd742f39	-0.059615348
30	0xbd314704	-0.043280616
31	0xbd2c0653	-0.04199822
32	0x3d6bcbc8	0.057567388
33	0xbd8e8bd8	-0.06960267
34	0x3cb14504	0.021639355
35	0x3dbd7e07	0.092525534
36	0x3d3630c3	0.044480097
37	0x3d874579	0.06605048
38	0x3da5d4b4	0.080972105
39	0x3d99d364	0.07511023
40	0xbcb65bd0	-0.022260576
41	0x3d4277a9	0.047477398
42	0x3dc48d61	0.095972784
43	0x3af47c34	0.0018652738
44	0xbd809931	-0.06279219
45	0x3cf2be53	0.02963177
46	0xbd40360e	-0.04692655
47	0xbce6230f	-0.02809289
48	0xbb7d9768	-0.0038694981
49	0x3d05726a	0.032579817
50	0x3d964a70	0.073384166
51	0xb9df8323	-0.0004263158
52	0xbc0e5c86	-0.0086890515
53	0x3d58d79f	0.052940007
54	0xbd547410	-0.0518685
55	0xbcc1c48c	-0.023653291
56	0x3d6a377b	0.057181817
57	0xbc5c1f20	-0.013435155
58	0x3ca76b6d	0.020436967
59	0x3dd88703	0.105726264
60	0x3d94e4f1	0.072702296
61	0xbdcccbdc	-0.099998206
62	0x3de28c5e	0.11061929
63	0x3d53d042	0.051712282
64	0x3dba1f0e	0.090879545
65	0xbdce4f98	-0.10073775
66	0x3dde2ef1	0.10848797
67	0xbdd55d89	-0.10418231
68	0xbdc18a3a	-0.09450193
69	0x3d82bd8a	0.06383808
70	0x3d6a10cb	0.05714492
71	0x3d23c870	0.039986074
72	0x3ddb60de	0.10711835
73	0x3cd4f76b	0.025996884
74	0xbc2b9b89	-0.010474094
75	0x3ad48298	0.0016213236
76	0x3d6be484	0.057590976
77	0xbdd3a106	-0.10333447
78	0x3dd705b7	0.10499137
79	0xbd2fe186	-0.042939685
80	0x3c98b70c	0.018641971
81	0xbd77645a	-0.060398437
82	0xbd4cba96	-0.04998263
83	0xbd40ba89	-0.047052894
84	0x3d39db88	0.045375377
85	0x3d5f7005	0.05455019
86	0x3d0537c7	0.032523897
87	0x3dad4153	0.08459725
88	0xbd2f0f1b	-0.042739015
89	0xbd8ffca5	-0.0703061
90	0x3cb3f983	0.021969562
91	0x3c1e5f0a	0.009666214
92	0x3c4c044b	0.012452195
93	0x3b4e2513	0.0031455203
94	0xbd08096f	-0.03321212
95	0xbc495a99	-0.012289667
96	0x3c825fff	0.015914915
97	0x3d2feb05	0.04294874
98	0x3d84ebc6	0.06490283
99	0x3de5fe6e	0.11230169
100	0xbd4fdf50	-0.050750077
101	0x3d30bab8	0.04314682
102	0xbddc8674	-0.107678324
103	0xbda2baa4	-0.07945755
104	0x3d832ba1	0.06404806
105	0x3db01dd2	0.08599438
106	0xbdb7980d	-0.08964548
107	0x3d123f7c	0.035705075
108	0x3d39b739	0.04534075
109	0x3dae7212	0.08517851
110	0xbddeac13	-0.10872664
111	0x3d409cec	0.047024652
112	0xbd56ceec	-0.05244343
113	0x3d993207	0.07480245
114	0xbd80517f	-0.06265544
115	0x3dcb0284	0.09912589
116	0x3d93f035	0.0722355
117	0xbc32927c	-0.010899182
118	0x3dd3bc55	0.10338656
119	0xbd4d9974	-0.050195172
120	0x3dba843e	0.091072544
121	0x3dc3c378	0.09558767
122	0x3da7f58d	0.08201132
123	0x3da75620	0.08170724
124	0xbcbf4966	-0.023350429
125	0x3dadff11	0.08495916
126	0xbd0bbb2f	-0.03411406
127	0x3de09ae0	0.1096704
128	0xbc9a23d0	-0.018815905
129	0x3d6ae083	0.057343017
130	0xbd35402a	-0.044250645
131	0x3dd11d9c	0.10210726
132	0x3c228c4d	0.009921146
133	0xbdc41514	-0.09574333
134	0xbdd114e1	-0.102090605
135	0x3dccac14	0.09993759
136	0xbcbc0485	-0.022951374
137	0x3cdcd75d	0.026958162
138	0xbde67e28	-0.11254531
139	0x3debb62d	0.11509357
140	0x3c09ec43	0.008418146
141	0xbd9301bf	-0.071780674
142	0x3daada20	0.08342385
143	0xbd5dbf1a	-0.054137327
144	0x3cb6b2b9	0.022302018
145	0x3da01cae	0.0781797
146	0xbc58563f	-0.013204156
147	0x3d086224	0.03329672
148	0x3dbb4e21	0.09145761
149	0x3cb86741	0.022510173
150	0x3bab99f3	0.005236858
151	0xbd547be9	-0.051875982
152	0x3c460902	0.012087109
153	0xbd63da3e	-0.055628054
154	0x3ddc8a65	0.10768584
155	0xbdcdc6d6	-0.100476906
156	0xbcf35b78	-0.029706702
157	0xbbc5adba	-0.0060326727
158	0x3d8184f4	0.06324187
159	0xbda421fc	-0.080142945
160	0x3c6582b2	0.014008211
161	0xbd2176e9	-0.039420042
162	0xbdda02f5	-0.10645095
163	0x3d7ad16b	0.061234873
164	0xbc74c3bd	-0.014939246
165	0xbaccfe69	-0.0015639785
166	0x3daaf661	0.08347774
167	0xbd6ed7ed	-0.05831139
168	0xbd23eca2	-0.040020593
169	0x3d1012df	0.035174247
170	0x3d31afe9	0.04338065
171	0x3d82dc66	0.06389694
172	0xbb23be01	-0.0024985077
173	0xbdc4113a	-0.09573598
174	0xbdb7e10a	-0.0897847
175	0x3db03540	0.08603907
176	0x3d9deb65	0.077109136
177	0x3d40efcb	0.047103684
178	0x3db902a8	0.0903371
179	0x3ce44891	0.027866634
180	0x3cbad613	0.022807157
181	0xbd31efde	-0.043441646
182	0x3d9ebb70	0.077505946
183	0xbd811cc7	-0.06304317
184	0x3de7ce86	0.11318688
185	0xbde63350	-0.11240256
186	0x3d2a3b7c	0.041560635
187	0x3dbfda11	0.09367765
188	0xbdce442c	-0.100715965
189	0xbdaac57f	-0.08338451
190	0xbcef3b0d	-0.029202962
191	0xbc1cd27f	-0.009571671
192	0x3d885b33	0.0665802
193	0x3db80f55	0.08987299
194	0xbd0fa074	-0.03506513
195	0xbd623f30	-0.05523604
196	0xbce4b4ac	-0.027918182
197	0xbde948c5	-0.11390833
198	0xbd57978e	-0.05263477
199	0xbdad516e	-0.08462797
200	0xbd4c7b14	-0.049922064
201	0x3c6cd3c5	0.014454787
202	0xbd9375a6	-0.07200174
203	0xbd5587bb	-0.052131396
204	0xbceb14f6	-0.028696518
205	0xbdc20546	-0.09473662
206	0x3d42f590	0.047597468
207	0x3d901e67	0.07037049
208	0xbd8738e8	-0.06602651
209	0xbdb041ac	-0.08606276
210	0x3db70d66	0.089381024
211	0x3db78c80	0.08962345
212	0x3db6a213	0.08917632
213	0x3da887bd	0.08229015
214	0x3dc7795a	0.09739943
215	0x3dcd867a	0.10035415
216	0xbd2e22bf	-0.042513605
217	0xbb80f0c4	-0.0039349515
218	0x3c4c1717	0.012456677
219	0x3ddb9802	0.107223526
220	0x3ced24b1	0.02894816
221	0x3d7ac503	0.06122304
222	0x3d418c4f	0.04725295
223	0x3ddcc90e	0.10780536
224	0x3d9c05bc	0.07618281
225	0x3db80aaa	0.08986409
226	0xbd2fa12b	-0.04287831
227	0xbda07c7a	-0.07836242
228	0xbd933894	-0.07188526
229	0xbda1a4aa	-0.07892735
230	0xbbc912c5	-0.0061362707
231	0x3d4ee891	0.05051476
232	0x3d7dfea1	0.06201041
233	0x3d11dd1b	0.035611253
234	0x3dc36fca	0.095428064
235	0x3d9a6bb7	0.07540076
236	0x3d7bfd54	0.06152089
237	0xbd81b919	-0.06334133
238	0x3b16d655	0.0023015935
239	0xbd0f813f	-0.035035368
240	0xbcbdf2b4	-0.023187019
241	0x3beb54b1	0.007181727
242	0x3d49360c	0.04912381
243	0x3cbc7bc6	0.023008239
244	0xbbb639d3	-0.0055610924
245	0x3ce37120	0.027763903
246	0xbd9aecac	-0.07564673
247	0x3d5e35a0	0.05425036
248	0x3de8dfac	0.11370787
249	0xbcfc210b	-0.030777475
250	0xbd032b86	-0.03202393
251	0xbdbc6c17	-0.09200304
252	0xbd0195b1	-0.031636897
253	0xbdbf9417	-0.09354418
254	0x3d52a1ff	0.051424023
255	0x3dc72664	0.09724119

conv1.bias f4 [64]
0	0xbccc1979	-0.02491449
1	0x3ca8f202	0.02062321
2	0x3cca7096	0.024711888
3	0xbd858261	-0.065190084
4	0x3cbc33ad	0.02297386
5	0xbd3c11ee	-0.045915537
6	0x3d3128d4	0.043251827
7	0x3d6d5626	0.057943486
8	0x3d0a8e1c	0.033826932
9	0xbdb66f80	-0.08907986
10	0x3dce76e3	0.100812696
11	0x3c2f93ab	0.010716359
12	0xbd2cf1fa	-0.042222954
13	0x3cb6b384	0.022302397
14	0x3d0a1f6d	0.033721376
15	0x3d70c709	0.058783565
16	0x3ddf2387	0.10895448
17	0xbd24cdda	-0.040235378
18	0xbda85d02	-0.08220865
19	0x3db3ebe3	0.08785226
20	0x3cd79b04	0.026319034
21	0xbddc6bec	-0.10762772
22	0xbda7b5e0	-0.08188987
23	0x3de59b8e	0.1121131
24	0x3c8dcfc1	0.017310979
25	0x3d915abf	0.070973866
26	0x3d8eb9ac	0.06969008
27	0x3d1a4e0f	0.0376721
28	0x3d1591cc	0.036515996
29	0x3d4902c5	0.049074907
30	0xbddc8bb6	-0.10768835
31	0xbd7e92fa	-0.062151887
32	0x3cc07040	0.023491025
33	0x3db3e8c8	0.08784634
34	0x3c49d36d	0.012318474
35	0x3ce37165	0.027764032
36	0x3d9a1e0b	0.075252615
37	0x3ddcfc79	0.10790343
38	0xbd521625	-0.05129065
39	0xbba1aaa7	-0.0049336734
40	0xbca5d251	-0.020241888
41	0x3be599ea	0.0070068734
42	0xbcbd0ad5	-0.023076454
43	0x3d94aa8a	0.0725909
44	0xbc93189e	-0.017956074
45	0xbd3c36d3	-0.045950722
46	0x3d4aac94	0.04948099
47	0x3d918c1b	0.07106801
48	0x3dc0eaea	0.09419806
49	0xbd86fedd	-0.0659158
50	0x3d8cf813	0.06883254
51	0x3d9fe606	0.07807545
52	0x3d20f481	0.039295677
53	0xbd693a06	-0.0569401
54	0xbcf67d54	-0.030089058
55	0x3b5bb839	0.0033526553
56	0x3cfaebea	0.03063007
57	0x3cc3d2c7	0.023904217
58	0x3d9b1df1	0.0757407
59	0xbd2ed87c	-0.042686924
60	0x3d3626fc	0.044470772
61	0xbd01f751	-0.03173
62	0xbdb7feba	-0.08984132
63	0x3d8419a2	0.064502016

conv2.weight f4 [64, 64, 5, 5]
0	0x3c12267f	0.008920311
1	0xbbf8ac16	-0.0075888736
2	0xbc2553e6	-0.010090804
3	0x3b56bc2e	0.0032765972
4	0x3b5e375e	0.0033907513
5	0x3c3484bb	0.011017974
6	0x3cf58d68	0.029974654
7	0xb8816148	-6.1693194e-05
8	0x3c78c298	0.0151831135
9	0x3bd9336a	0.0066284435
10	0x3d2353f5	0.03987499
11	0x3c61e8d8	0.013788424
12	0x3a8dacb9	0.0010808922
13	0x3d0308e5	0.031990904
14	0x3c816802	0.015796665
15	0xbbea347c	-0.00714737
16	0xbc960996	-0.018315118
17	0xbc9f751c	-0.019465022
18	0xbcab2e4e	-0.020896103
19	0x3c9260bf	0.017868398
20	0xbc507cb1	-0.012725041
21	0xbbf463e1	-0.0074581956
22	0x3b8dfa1b	0.0043327934
23	0x3ce7d6fd	0.028300757
24	0x3c3a0502	0.011353733
25	0x3ccb4cf8	0.024816975
26	0x3d066b94	0.03281744
27	0xbb3ee80d	-0.0029130012
28	0x3b695ac8	0.0035607088
29	0xbc886876	-0.016651373
30	0xbc50154b	-0.012700389
31	0xbca69d55	-0.020338694
32	0xbc42ee11	-0.01189758
33	0xbb0a08fe	-0.0021062489
34	0xbc72f035	-0.014827778
35	0xbb2e875a	-0.0026630969
36	0xbcb0a1d3	-0.021561539
37	0xbc4aa23a	-0.012367779
38	0x3bffcc56	0.007806341
39	0xbc4fb9b9	-0.012678557
40	0x3c911ce4	0.017713971
41	0xbad1b89d	-0.0016000454
42	0xbc929755	-0.017894426
43	0x3ac45214	0.0014978074
44	0xbc999d8f	-0.018751888
45	0xbbfda0c8	-0.007740114
46	0x3bc62094	0.006046364
47	0x3cb452a4	0.022012062
48	0xba2fa35a	-0.00067000615
49	0x3bf04129	0.0073319864
50	0x3bd98c57	0.0066390443
51	0xbc4e735e	-0.012600748
52	0x3c2f09ef	0.010683521
53	0x3cbe45c6	0.02322663
54	0x3c3feee7	0.011714674
55	0x3b8afffa	0.0042419406
56	0x3cd978f7	0.026546938
57	0x3cb47458	0.022028133
58	0xbb59d558	-0.0033238735
59	0x3c79a613	0.015237349
60	0xbcbcda4c	-0.02305331
61	0x3d103d9f	0.035215016
62	0x3c55f2db	0.01305839
63	0xbc962259	-0.018326925
64	0x3c5d09be	0.013491092
65	0xbd11bc37	-0.035579886
66	0x3ba9d482	0.0051828036
67	0xbc27b899	-0.010236883
68	0xbb48096a	-0.003052319
69	0xbd3ecfa2	-0.046584733
70	0x3c380a2e	0.011232896
71	0xbd165fa3	-0.0367123
72	0x3c27fb3a	0.010252768
73	0xbc6d1a6a	-0.01447163
74	0xbc4000a2	-0.011718901
75	0xbc1d2644	-0.009591643
76	0x3c9c1373	0.019052243
77	0xbb687814	-0.0035471963
78	0xbb0c0276	-0.0021363772
79	0x3c6e09f6	0.014528742
80	0xbc82efb1	-0.015983434
81	0x3cab0cae	0.02088007
82	0xbc2023dd	-0.0097741755
83	0xbbc6839e	-0.0060581705
84	0xbc9af666	-0.01891632
85	0x3ce09dc4	0.027418979
86	0xbc22a129	-0.009926119
87	0x3c0dd9dd	0.0086579
88	0x3d284ed0	0.041090786
89	0x3ca7d5f3	0.020487761
90	0x3cfce5b6	0.030871253
91	0x3d03c7d6	0.032173
92	0x3c112764	0.008859489
93	0x3d134680	0.035955906
94	0x3abd1307	0.0014425226
95	0x3c8911e0	0.016732156
96	0xbcd75f0c	-0.02629044
97	0xbbdaa58c	-0.0066725668
98	0x3c8714b5	0.016489366
99	0x3cff2514	0.03114561
100	0xbb24ea12	-0.002516393
101	0x3cf3a7c4	0.029743083
102	0x3d0770fa	0.033066727
103	0xbc98785e	-0.018612083
104	0xbcb9e545	-0.022692332
105	0x3c9c847b	0.01910614
106	0x3c892c36	0.016744714
107	0x3c1f790e	0.0097334515
108	0x3c910ada	0.01770537
109	0x3b80fd56	0.00393645
110	0xbaf3b8d9	-0.0018594518
111	0x3c68e9aa	0.014215866
112	0x3c68e2e1	0.014214248
113	0xbba3c8f8	-0.0049983226
114	0x3c9f7fc7	0.019470109
115	0xbc79e89d	-0.015253213
116	0x3c7388b6	0.014864137
117	0x3ccf0d34	0.02527485
118	0x3d0c22ad	0.034212757
119	0xbc8d0ce1	-0.017218055
120	0x3cb0cf21	0.021583142
121	0xbbb73c29	-0.0055918884
122	0xbb133eab	-0.0022467773
123	0xbbf36532	-0.007427835
124	0xbcad9652	-0.021189842
125	0x3c1cde52	0.00957449
126	0x3c58715a	0.013210619
127	0x3c4bda67	0.012442208
128	0x3c6d6946	0.014490431
129	0x3c5faa47	0.013651437
130	0xbbe7c621	-0.0070731794
131	0x3b6e85f8	0.003639577
132	0x3d03174a	0.032004632
133	0x3cf3d25f	0.029763399
134	0x3c09621f	0.00838521
135	0x3ce0ffba	0.02746569
136	0x3d8f9c28	0.07012206
137	0x3d8231b6	0.06357138
138	0x3c1fe687	0.009759552
139	0x3cd07b83	0.02544952
140	0x3d496ef4	0.04917808
141	0x3c038e18	0.008029483
142	0x3d013fa2	0.031554826
143	0x3cdc6210	0.026902229
144	0x3a7c0adf	0.0009614657
145	0xbbc32ce7	-0.0059562805
146	0xbbf165e5	-0.007366883
147	0x3b57654d	0.0032866776
148	0xbcaf1741	-0.021373393
149	0xbcb52ae9	-0.022115188
150	0xbc6fd5a7	-0.014638341
151	0x3c6d588c	0.014486443
152	0xbcfe2fad	-0.031028593
153	0xbc56b626	-0.013104951
154	0x3b1a9049	0.0023584536
155	0xbc28aaf0	-0.010294661
156	0x3d116eff	0.035506245
157	0xbd482410	-0.048862517
158	0xbd4ee98f	-0.050515708
159	0x3c883bf9	0.01663016
160	0xbd926823	-0.07148769
161	0xbd37b01a	-0.044845678
162	0xbda2e200	-0.07953262
163	0xbca3baa8	-0.019986466
164	0x3d78f5fa	0.060781457
165	0xbd414bfd	-0.04719161
166	0xbd06f6d3	-0.032950234
167	0xbbee4fbe	-0.0072726896
168	0xbb882351	-0.0041546007
169	0x3b824a15	0.0039761164
170	0x3ac8cef7	0.0015320469
171	0x3d5870db	0.052842002
172	0xbb5fdd11	-0.0034158865
173	0xbc3cd6bd	-0.011525807
174	0xbd12f0e7	-0.035874274
175	0x3bd7490f	0.0065699886
176	0x3c5c0276	0.013428321
177	0x3cd8906d	0.026436055
178	0x3cba7e37	0.022765262
179	0xbcda0c32	-0.026617143
180	0xbbdd8280	-0.0067599416
181	0x3bed3eb6	0.0072401417
182	0xbb894f23	-0.004190342
183	0x3c8e5ac6	0.017377269
184	0x3b5e1c9b	0.0033891562
185	0x3cc10dcf	0.023566155
186	0x3c75a676	0.014993301
187	0x3c5db7b2	0.013532566
188	0x3d1f7385	0.038928527
189	0xbb3ef84b	-0.0029139693
190	0xbd095004	-0.033523574
191	0x3cfa4ef2	0.030555222
192	0x3d1d62f7	0.03842446
193	0xbd089027	-0.0333406
194	0xbca68170	-0.020325392
195	0xbbecabcc	-0.007222628
196	0xbb8fa8d3	-0.004384139
197	0x3c777f94	0.015106101
198	0x3a12287d	0.0005575491
199	0xbd0746e5	-0.033026595
200	0x3c81a502	0.015825752
201	0xbc996838	-0.018726453
202	0xbbb7da6f	-0.005610756
203	0x3c9d0b60	0.019170463
204	0xbb186bbb	-0.0023257572
205	0x3c8adcc3	0.01695097
206	0x3c48213b	0.012214954
207	0xbb67f758	-0.003539523
208	0xbb4d3fba	-0.0031318502
209	0xbb2e54a9	-0.0026600754
210	0xbaf7c396	-0.0018902894
211	0x3a086bd1	0.0005204054
212	0x3cd1e78c	0.025623105
213	0x3c71acb8	0.014750652
214	0x3c870112	0.016480003
215	0x3c84cd1c	0.016211085
216	0xbc9e9473	-0.019357895
217	0x3c96b18e	0.018395212
218	0xbc4bc692	-0.01243748
219	0xbc1620be	-0.00916308
220	0xbcc1581b	-0.023601582
221	0xbc93e9b5	-0.018055776
222	0x3ccc924b	0.024972102
223	0x3c83fb25	0.016110966
224	0xbc404f69	-0.011737683
225	0xbd79b2be	-0.060961477
226	0x3dba5ce5	0.090997495
227	0x3d98aabd	0.07454441
228	0xbd602e95	-0.054731924
229	0xbc369199	-0.011143112
230	0xbd61c8ef	-0.055123266
231	0x3cb2b217	0.021813435
232	0x3c41d62f	0.0118308505
233	0xbca15854	-0.019695438
234	0xbd20f145	-0.039292593
235	0x3cafd221	0.021462502
236	0x3d190482	0.037357815
237	0x3d0f87a0	0.03504145
238	0xbd2e641c	-0.04257594
239	0xbc91752f	-0.017756073
240	0x3c6ff985	0.014646892
241	0x3d88d438	0.066811025
242	0x3d91204c	0.07086238
243	0xbcdec7ad	-0.027194822
244	0x3ba58f7e	0.005052506
245	0xbd6c7102	-0.05772496
246	0x3ace75c2	0.0015751647
247	0x3d4769c9	0.04868487
248	0xbcd29a69	-0.025708394
249	0xbd66881f	-0.05628216
250	0xbd1d2100	-0.03836155
251	0xbc3f985f	-0.011694043
252	0xbc870e37	-0.01648627
253	0xbc2f1d22	-0.010688098
254	0xb920a60c	-0.00015320646
255	0xbd0391a8	-0.03212133

conv2.bias f4 [64]
0	0x3c21c70d	0.009874118
1	0x3cfa4cfe	0.03055429
2	0xbcd62a34	-0.02614317
3	0xbbd6858f	-0.006546683
4	0xbc9407da	-0.01807015
5	0x3bc7a1f9	0.0060923067
6	0x3c9a8cbb	0.018865934
7	0xbc1f01e1	-0.009705038
8	0xbc409466	-0.011754131
9	0xbcb23988	-0.021755949
10	0xbcb6dd32	-0.022322271
11	0xbb81e11c	-0.0039636027
12	0xbcdb2a12	-0.02675346
13	0xbaa27e69	-0.0012397292
14	0x3ca8fa64	0.020627208
15	0x3ad88f96	0.0016522284
16	0x3c6f4499	0.014603757
17	0x3c615936	0.01375418
18	0x3cce14a8	0.025156334
19	0xbcda6a5b	-0.026662042
20	0xbc1b28f5	-0.009470214
21	0xbbc536f5	-0.0060185143
22	0xbc38f1e3	-0.011288139
23	0x3c95bd5c	0.01827877
24	0x3c2e3523	0.010632786
25	0x3ca56c86	0.02019335
26	0x3ab13561	0.0013519936
27	0xbb971a70	-0.004611306
28	0xbc761dfa	-0.015021795
29	0xbc782738	-0.015146069
30	0xbc340980	-0.010988593
31	0x3c82fd6f	0.015989987
32	0x377d7d5c	1.5109163e-05
33	0xba841e00	-0.0010079741
34	0x3c4ebbd2	0.012618022
35	0x3b1ce2c2	0.002393887
36	0xbc8c34ed	-0.01711508
37	0x3c490d01	0.012271167
38	0x3cd72c27	0.02626617
39	0xbc0bb79f	-0.008527665
40	0xbc6c8161	-0.014435143
41	0xbbec16e2	-0.0072048763
42	0x3c8e08e9	0.017338233
43	0x3c83da70	0.01609537
44	0xbc85119c	-0.016243748
45	0x3c35b4e0	0.011090487
46	0x3c9ff4e4	0.019525953
47	0xbcd08346	-0.025453221
48	0xbbb120d0	-0.005405523
49	0x3bc26a4c	0.0059330817
50	0x3c886b2a	0.016652662
51	0xbbe3cf9b	-0.0069522387
52	0xbbf0dc91	-0.0073505123
53	0x3bed547b	0.007242737
54	0xbbcd66f5	-0.006268377
55	0xbc6e0f96	-0.014530083
56	0x3cb8ec8d	0.022573734
57	0xbbb6f1e8	-0.0055830367
58	0xbc3e9319	-0.0116317505
59	0x3c260aa4	0.010134373
60	0x3cd089fe	0.025456425
61	0x3c3b5030	0.011432692
62	0x3cc8d60d	0.02451613
63	0xbc82ea37	-0.015980823

conv3.weight f4 [48, 64, 3, 3]
0	0x3c0fdf84	0.008781318
1	0x3d0858b7	0.03328773
2	0x3d180e48	0.037122995
3	0x3d5e67ba	0.05429814
4	0x3d2a1e43	0.041532766
5	0xbcaaa78b	-0.020831844
6	0xbcdd9f94	-0.027053632
7	0x3d041a47	0.032251623
8	0xbba3f91f	-0.005004063
9	0xbc5be4ee	-0.01342128
10	0x3d1a632c	0.037692234
11	0x3ab580f2	0.0013847633
12	0x3cdc7bd0	0.026914507
13	0xbc135918	-0.00899341
14	0xbcfb5338	-0.03067933
15	0x3d12562e	0.03572672
16	0x3cd63d6b	0.026152333
17	0x3d0eee13	0.034895014
18	0xbd1f23be	-0.038852446
19	0x3ce42078	0.027847514
20	0xbc9cbb96	-0.019132417
21	0xbcb3fa41	-0.021969916
22	0x3d15f2d3	0.03660853
23	0xbc98dcd2	-0.018659983
24	0xbd0ef0fb	-0.034897786
25	0xbcbedaae	-0.023297634
26	0xbbb2cb94	-0.0054563973
27	0x3cc65ad1	0.024213227
28	0x3ce90da1	0.028448882
29	0xbc9144e9	-0.017733054
30	0xbc375080	-0.011188626
31	0xbcab178b	-0.02088525
32	0xbc16960c	-0.009191047
33	0xbd11c560	-0.035588622
34	0xbbc4ba26	-0.006003636
35	0xbc42a7d7	-0.011880836
36	0xbcc28574	-0.023745276
37	0x3d1fc0f6	0.03900238
38	0xbd056828	-0.032570034
39	0x3cb3b05a	0.021934677
40	0xbcec550a	-0.028849144
41	0x3c4fe5d3	0.012689072
42	0xbcd4b2eb	-0.025964221
43	0x3c6ee791	0.014581577
44	0xbc821bdd	-0.015882427
45	0x3c2b2c77	0.010447613
46	0x3c24a270	0.010048494
47	0x3c94a28a	0.01814391
48	0xbcac7c5b	-0.021055391
49	0xbd0a4353	-0.03375561
50	0xbcb064e7	-0.021532489
51	0xbcdb704b	-0.026786944
52	0x3cb56f69	0.022147851
53	0xbd05b7db	-0.03264604
54	0xbc2fa81a	-0.010721231
55	0xbce021c1	-0.027359845
56	0x3bccaadf	0.0062459554
57	0x3d1c62dc	0.038180217
58	0xbd14384e	-0.03618651
59	0xbccf17c2	-0.025279883
60	0x3d31c6bb	0.043402415
61	0xbd17c71a	-0.037055112
62	0x3d1f4bcd	0.03889065
63	0xbd27082e	-0.040779285
64	0xbcd367b8	-0.025806293
65	0xbcbaf117	-0.022820039
66	0x3cd4a0b6	0.02595554
67	0x3c9a0e88	0.018805757
68	0xbbfc83e7	-0.0077061537
69	0xbcacb838	-0.021083936
70	0xbc91a43e	-0.017778512
71	0x3be53891	0.0069952686
72	0xbd0262ac	-0.031832382
73	0xbcc62e4d	-0.024192
74	0x3d01dbf8	0.03170392
75	0xbc59fd1e	-0.013304977
76	0xbd0eaa80	-0.03483057
77	0x3ca31a22	0.019909922
78	0xbcc2affa	-0.023765553
79	0x3cfbd4a9	0.030741053
80	0x3d27dc4d	0.04098158
81	0x3ca5e156	0.02024905
82	0xbd046819	-0.032325838
83	0xbb9329db	-0.0044910735
84	0xbca24a7c	-0.019810908
85	0xba4d4e38	-0.0007831785
86	0x3c18cd77	0.00932633
87	0x3ce04a76	0.027379256
88	0x3be52fe7	0.006994236
89	0x3d0d409c	0.034485444
90	0xbc22eb39	-0.009943777
91	0xbb2f512c	-0.0026751263
92	0xbb9d3e90	-0.004798718
93	0x3cebdad9	0.028790878
94	0x3a9dfdda	0.0012053803
95	0x3c7c9e05	0.015418534
96	0xbbc3c055	-0.0059738555
97	0x3cf2b208	0.029625908
98	0x3cfa5bc7	0.030561341
99	0x3c0180cf	0.0079042455
100	0xbcf1073e	-0.029422399
101	0xbcd3eb4e	-0.025869038
102	0xbc04b5e5	-0.008100008
103	0xbcd4d0ce	-0.025978472
104	0xbd119f5b	-0.035552364
105	0x3c9d3df4	0.01919458
106	0x3d277790	0.040885508
107	0x3d0a86eb	0.033820074
108	0xbcd26ba3	-0.02568609
109	0x3cc4d005	0.024024973
110	0xbc9e2ce0	-0.019308507
111	0xbc5f4860	-0.013628095
112	0x3d164ad4	0.036692455
113	0xbbba9bf8	-0.0056948625
114	0xbb1fe669	-0.002439881
115	0x3b18b068	0.0023298506
116	0x3ca0884b	0.01959624
117	0x3c249409	0.01004506
118	0x3c4837c8	0.012220331
119	0x3c2c2c32	0.010508584
120	0x3c2fba1d	0.010725525
121	0xbc02cc29	-0.007983246
122	0x3bdc29ed	0.006718865
123	0xbcfec5bb	-0.031100145
124	0xbd07d3f8	-0.033161134
125	0xbc507a67	-0.0127244955
126	0xbb44df34	-0.0030040266
127	0x3c45a584	0.012063388
128	0x3d157e66	0.036497496
129	0xbb848a17	-0.004044782
130	0xbd0c6c6d	-0.03428309
131	0xbcc106ef	-0.023562877
132	0xbc8e79ea	-0.017392118
133	0xbc9ee00b	-0.019393941
134	0x3d0b6b97	0.034038153
135	0x3cf0c964	0.029392906
136	0x3c690196	0.0142215695
137	0xbc7cc955	-0.015428861
138	0x3d284c7d	0.04108857
139	0xbc367b28	-0.011137761
140	0x3caf5fa6	0.021407913
141	0x3bc53b1c	0.0060190093
142	0x3b12a5a6	0.0022376566
143	0xbc8b1049	-0.016975539
144	0x3c6b5eea	0.014365891
145	0x3c26b36e	0.010174615
146	0x3cabeb75	0.020986298
147	0x3bf9eadb	0.007626874
148	0x3d2966a5	0.041357655
149	0xbcffd989	-0.031231659
150	0x3c967a67	0.018368913
151	0xbd00428f	-0.031313475
152	0x3c1cfa46	0.009581154
153	0xbccb2b12	-0.024800811
154	0x3ce1395a	0.027493168
155	0x3d1e8bcf	0.03870755
156	0xbcda64f4	-0.026659466
157	0x3cbbb5c2	0.022913817
158	0x3d162120	0.036652684
159	0xbcbfc3eb	-0.02340885
160	0xbcc9c7ed	-0.024631465
161	0xbb3f6784	-0.0029205987
162	0x3c8c1c53	0.01710335
163	0xbd05908b	-0.03260855
164	0x3cb51581	0.02210498
165	0xbbd9a03f	-0.0066414173
166	0xbcbeb120	-0.02327782
167	0xbcfc4a80	-0.030797243
168	0x3c7e4097	0.015518329
169	0xbd1b2fc6	-0.037887357
170	0xbcd167f0	-0.025562257
171	0xbd1a936c	-0.03773825
172	0x3c4c5880	0.012472272
173	0xbc1fa227	-0.00974325
174	0x3c994fef	0.018714873
175	0xbc1d88af	-0.009615107
176	0xba2647b0	-0.000634308
177	0x3c1a40f5	0.009414901
178	0xba46d9c9	-0.0007585553
179	0xbc4b9221	-0.012424977
180	0xbcd46db6	-0.02593122
181	0x3c4efe95	0.012633939
182	0x3d36552d	0.044514824
183	0x3c950953	0.018192923
184	0x3ca5dccc	0.020246886
185	0x3c0c1a9b	0.008551265
186	0xbd21c064	-0.03949012
187	0x3cf875e5	0.030329654
188	0x3c993a01	0.018704416
189	0x3c5d0903	0.013490918
190	0x3d986729	0.07441551
191	0x3c04c9df	0.00810477
192	0x3d58117e	0.052751057
193	0x3da4d99d	0.08049319
194	0xbd04e578	-0.0324454
195	0x3cf01950	0.029308945
196	0x3d37f3e8	0.04491034
197	0xbbd29765	-0.006426739
198	0xbbeb0aeb	-0.0071729324
199	0x3b13da8c	0.0022560684
200	0x3b29a233	0.0025884032
201	0xbd26bcb5	-0.04070731
202	0x3c89a4bf	0.01680219
203	0xbc48e8ee	-0.012262566
204	0xba968087	-0.0011482396
205	0x3d09ec31	0.033672515
206	0x3c938195	0.018006125
207	0xbceae94f	-0.028675703
208	0xbb08d0ef	-0.0020876487
209	0x3cc3898c	0.023869298
210	0xbcf910f3	-0.03040359
211	0x3c830c1c	0.015996985
212	0xbcf2ef73	-0.029655194
213	0xbc689a39	-0.014196926
214	0x3b94d5fc	0.0045421105
215	0x3cbe7075	0.023246983
216	0x3a11b5b5	0.00055583875
217	0xbcd0a420	-0.025468886
218	0x3cdc8209	0.026917474
219	0xbc42c794	-0.011888403
220	0x3d08fcb2	0.033444114
221	0xbcf2dc22	-0.029645983
222	0xbc91058d	-0.017702842
223	0xbca422ad	-0.020036066
224	0xbc635567	-0.013875342
225	0xbc2ec090	-0.010666028
226	0xbc98b681	-0.018641712
227	0x3d093704	0.033499733
228	0xbb85d5ef	-0.0040843408
229	0xbc1fac15	-0.009745617
230	0x3c342818	0.010995887
231	0x3d280057	0.04101595
232	0xbcfa359a	-0.030543137
233	0xbc23ada3	-0.009990129
234	0x3c10df40	0.008842289
235	0xbd2ff168	-0.042954832
236	0x3c1e43f1	0.009659753
237	0x3bd64696	0.006539176
238	0x3cbd34a2	0.023096386
239	0xbce4af6f	-0.027915685
240	0xb9aa65a5	-0.00032500658
241	0x3c19ea98	0.00939431
242	0xbd1dceab	-0.038527172
243	0x3cd96fb1	0.026542516
244	0x3cbfbe83	0.023406273
245	0x3b243e25	0.0025061455
246	0x3d044486	0.03229191
247	0x3d057f05	0.03259184
248	0xbcb4e435	-0.022081474
249	0xbce77088	-0.028251901
250	0xbcbb9cf2	-0.022901986
251	0x3d221f58	0.039580673
252	0x3cde7793	0.027156627
253	0x3d154180	0.03643942
254	0x3d086f31	0.033309165
255	0xbc9de90f	-0.01927617

conv3.bias f4 [48]
0	0x3ca4b0a4	0.02010376
1	0x3d030ffb	0.031997662
2	0x3c8637d9	0.016384052
3	0xbad59b8b	-0.0016296966
4	0xbcbfdbd3	-0.02342025
5	0xbcf73674	-0.030177332
6	0x3d02b35a	0.031909324
7	0x3c92b87e	0.017910238
8	0xbc753d7b	-0.014968271
9	0xbce258d1	-0.027630242
10	0x3c8dba69	0.017300801
11	0x3c960630	0.018313497
12	0x3c371dcf	0.0111765405
13	0x3ba74821	0.005105034
14	0x3c4c950d	0.012486708
15	0x3c279e87	0.010230667
16	0x3d0e6d51	0.03477222
17	0x3ce32a9e	0.027730282
18	0x3c22b45d	0.009930697
19	0x3bbc57b2	0.005747759
20	0x3cb8f7de	0.02257913
21	0x3c2548f2	0.010088192
22	0x3d284149	0.041077886
23	0x3c460f9f	0.012088685
24	0x3d2a9842	0.04164911
25	0x3b1492b6	0.0022670454
26	0xbc143ef4	-0.009048212
27	0x3c79eb1f	0.015253811
28	0x3c64ea25	0.01397184
29	0xbcb1ca2f	-0.021702854
30	0x3b2c0959	0.0026250689
31	0x3cfeb435	0.031091789
32	0x3cdef737	0.02721749
33	0x3c3f370a	0.011670837
34	0x3bd82895	0.0065966346
35	0xbc911f11	-0.017715009
36	0xbbfcb469	-0.0077119363
37	0xbc8d8931	-0.017277332
38	0x3b7797d2	0.00377797
39	0x3bf15e67	0.00736599
40	0xbb65c88a	-0.0035062158
41	0xbc95a5e8	-0.018267587
42	0x3ca43aeb	0.020047626
43	0xbc3aa469	-0.0113917375
44	0x39791719	0.00023755095
45	0xbcb19a0d	-0.021679902
46	0xbc864613	-0.016390836
47	0xbbaa26cb	-0.0051926128
