scripts/drafts/Sichen/espcn_model.pth (torch, 151536 bytes, 6 tensors)

conv1.weight f4 [64, 3, 5, 5]
000000 2c 22 13 bd 2a 45 ca 3d e6 81 a3 3d 94 75 34 bd
       -0.03592126 0.09876473 0.079837605 -0.044057444
000010 73 13 c2 bd 6c 0b d9 bb e8 2e 4e bd f0 68 b0 bc
       -0.09476366 -0.006623676 -0.050337702 -0.021534413
000020 09 09 8e 3d f1 1c b0 3c ec 61 d1 3d 14 7e cf 3b
       0.06935317 0.021498175 0.10223755 0.0063321684
000030 8c 5c ea bc 16 4b 3e 3d 52 83 fd 3b 16 fb 49 3d
       -0.028608583 0.046458326 0.007736602 0.04931172
000040 51 68 ab 3d f6 a3 a2 bd 77 2f 5f bd 9f 93 f3 3c
       0.08369506 -0.07941429 -0.054488625 0.029733477
000050 51 b0 62 3d 97 14 21 3d c0 56 5e bd 3d 3e 5f 39
       0.05534393 0.039326277 -0.05428195 0.00021290123
000060 7a e0 0f bd e5 b5 81 3d bd 90 d4 bd 7a 0d 8f 3c
       -0.035126187 0.06333522 -0.10379169 0.01746248
000070 f7 6c c9 3c db 5d 83 bd ad 0c d0 bd bb 45 8e bd
       0.024588091 -0.06414386 -0.10158668 -0.06946894
000080 d5 ed 6d 3d 3f b2 e3 bd 69 c2 7e 3d 00 bb d3 bb
       0.058088142 -0.11117982 0.062197123 -0.006461501
000090 a2 80 b0 bc 89 6d 9f 3d 8e 87 82 3d f8 78 f9 3c
       -0.021545712 0.07784564 0.06373511 0.03045319
0000a0 67 e7 32 bc 9c e9 7a bd 2f 7c b8 bd db da 80 bd
       -0.010919428 -0.061257944 -0.09008061 -0.06291743
0000b0 44 ca 62 3d 36 cf b7 3c e8 af de 3d c9 51 eb 3c
       0.055368677 0.022437673 0.10873395 0.028725522
0000c0 6c 66 f6 3d a2 5e a2 bd 14 07 87 bd 9d 9e ed 3d
       0.12031254 -0.07928206 -0.06593147 0.11602519
0000d0 8b 89 0b bd 64 c1 9c 3d c8 01 f9 3d c7 bb 3f 3d
       -0.034066718 0.07654074 0.12158543 0.046809938
0000e0 da 94 e6 bd 96 e8 37 bc f2 f6 ee bc 02 21 d3 3d
       -0.1125886 -0.011224886 -0.029170487 0.1030903
0000f0 89 6d cb bc 23 60 af 3d ff 54 33 3d 24 bd 0f 3c
       -0.024832504 0.085632585 0.04378223 0.008773122
000100 27 0b 8d 3c 9c c1 be 3d 91 61 8c bd a8 58 ce bd
       0.017217232 0.09314272 -0.06854547 -0.100755036
000110 e7 04 7b bd 30 ee c0 3c 39 9a bd bd 11 6f 0e 3d
       -0.061283972 0.023551077 -0.09257931 0.03477389
000120 4b 78 5b 3d 75 7c b3 3d eb 68 d5 bd ef 83 54 3d
       0.053581517 0.08763973 -0.10420402 0.051883634
000130 fe 18 a8 3d ca 0f a7 3d be 7f e1 bd af e3 ac bd
       0.08207892 0.081573084 -0.11010693 -0.08441865
000140 f0 29 18 3d 33 cd 35 bd d1 86 34 bd 5e c4 a1 bd
       0.03714937 -0.044385146 -0.044073883 -0.07898782
000150 0f a6 82 bd 06 8e a8 3d 82 25 57 3c 20 e1 2c bd
       -0.063793294 0.08230214 0.013131501 -0.042206883
000160 b0 08 43 3a f2 4c 7b 3d e8 df 89 bd ff 11 1f 3d
       0.0007439954 0.061352678 -0.0673216 0.03883552
000170 20 79 eb bd 21 e9 cd bd 35 90 27 bd f4 6f 4d 3d
       -0.11497712 -0.100542314 -0.04090901 0.050155595
000180 08 84 7b 3d e1 45 9a bd fc 3c 1d bd c0 8f 3b 3d
       0.06140521 -0.075328596 -0.038388237 0.045791388
000190 4a 78 ab bd 9f eb 8c bd 96 f1 e0 3d b7 81 dd 3d
       -0.08372553 -0.06880879 0.10983579 0.10815757
0001a0 b2 03 22 bd 5c bc f3 bc b2 94 d9 3d 09 5a 23 3e
       -0.039554305 -0.029752903 0.106240645 0.15952314
0001b0 2c d0 d0 bd fa f2 2f bd 8b b1 ba 3d 8a 01 77 bb
       -0.10195956 -0.04295633 0.09115895 -0.0037690126
0001c0 ca 13 a9 3d 05 7b 01 3e 66 b0 b0 3d c9 6c 87 3d
       0.082557276 0.12644584 0.08627395 0.06612546
0001d0 66 26 81 bd d4 66 c9 3d 3d ff ba 3d 9e d5 8d 3b
       -0.06306152 0.09834066 0.09130714 0.0043284437
0001e0 4f c0 ad bc a4 32 66 bc 3b 44 08 3d 0c c3 56 bd
       -0.021209864 -0.01405016 0.033268195 -0.052432105
0001f0 39 ad c8 3d ba 5f 86 3d 95 17 ff bd c9 72 b4 bd
       0.097986646 0.06561227 -0.1245567 -0.08810956
000200 21 39 32 bd bd 9f 0d 3e 22 87 a3 3d b1 4a f7 3d
       -0.043511514 0.13830467 0.07984759 0.12074793
000210 98 ee 15 3e 6e 06 4e bd 1c 00 26 3d 27 7d a9 bd
       0.14641798 -0.0502991 0.040527448 -0.08275824
000220 be 8b d5 bd 54 77 c5 bd c1 68 18 3d 6b d9 bc bd
       -0.10427044 -0.09641901 0.037209276 -0.09221157
000230 fa bc e4 bd ed d9 c2 3c 73 e4 4c 3b 43 d2 1e bd
       -0.11168857 0.023785556 0.0031264096 -0.03877474
000240 67 93 08 bd 78 27 db bd df 0c d7 bd bd f5 3d 3d
       -0.0333437 -0.107008874 -0.10500502 0.046376932
000250 62 8e ab 3d 7c 95 44 3d bf 82 8f 3b 87 cb 9e bd
       0.08376767 0.047994122 0.0043796 -0.077536635
000260 24 8d 70 bc 2b 26 96 3d f3 1d b5 bb 78 f0 80 3d
       -0.014682088 0.07331499 -0.005527252 0.06295866
000270 5f c8 ba 3d 19 17 23 bd bf d2 6e bd 5b 08 60 3d
       0.09120249 -0.03981695 -0.058306452 0.05469547
000280 c7 2d 4b bd c0 02 df 3d 89 65 17 bd bf 47 02 bd
       -0.049604204 0.108891964 -0.036962066 -0.031806704
000290 b0 75 3c 3d 4a e9 2a bd 28 99 76 bd ce 3e 7c bd
       0.046010673 -0.041726388 -0.060204655 -0.061583333
0002a0 bd c8 e6 3d 20 33 49 bd 08 16 b2 bd 51 6a e0 3c
       0.112687565 -0.049121022 -0.086956084 0.027394446
0002b0 51 5b da bd b4 df d6 bd ce b3 ef 3c 12 59 82 bd
       -0.106619485 -0.10491887 0.029260542 -0.06364645
0002c0 d7 b8 71 3d 38 26 53 bd 8c c2 0d 3d e5 f5 ce bd
       0.059014168 -0.05155012 0.034609362 -0.101054944
0002d0 2c bd db bc 44 6f ac bb f6 00 d5 3d d7 98 e1 3d
       -0.026823603 -0.0052622873 0.10400574 0.1101548
0002e0 12 f9 9f bc a4 95 87 bd 00 e4 aa 3c fa f3 bf bc
       -0.019527946 -0.066203386 0.020860672 -0.023431767
0002f0 69 12 35 3d 3e e4 5d 3d f2 42 70 bd b2 ad 00 3d
       0.04420701 0.054172747 -0.058657594 0.03141565
000300 0b ba 2b 3b 41 42 9d 3d 10 18 54 3d f2 4b c7 3d
       0.002620342 0.076786526 0.05178076 0.09731282
000310 fc 10 91 3d 02 66 db bd f4 f2 8b bd b7 a9 3d 3d
       0.07083318 -0.10712816 -0.06833449 0.04630443
000320 e4 bc 21 bd a6 69 b7 bc de f3 d5 3d ec b9 cd bd
       -0.03948678 -0.022389244 0.104469046 -0.100452274
000330 74 6f ea 3d 96 22 80 3d c7 e9 08 3d 36 f2 e5 3d
       0.11447039 0.06256597 0.033426072 0.11227839
000340 d3 d1 ce 3d 8f cf da bd 6d e4 c7 bd 87 9e 2e bd
       0.100986145 -0.1068412 -0.09760366 -0.042631652
000350 24 44 d4 3d 5d 83 7b 3d da f0 9d bd be 00 80 3d
       0.10364559 0.061404575 -0.077119544 0.062501416
000360 9f 06 c3 bc 6f 0c 60 bd d1 cb 9f 3d 96 18 91 3c
       -0.023806868 -0.054699358 0.07802547 0.017711919
000370 62 c2 ce 3c 82 3c d7 bc 80 52 19 bd bd 52 cf bd
       0.025239173 -0.02627397 -0.037432194 -0.10123203
000380 35 c0 27 bd a3 4c 8e 3d fe ea 12 bc 7f ab b7 bd
       -0.040954787 0.06948211 -0.008967159 -0.08968257
000390 15 e5 35 3c 49 65 7c bb 77 9a b1 bb 3a 43 f9 bd
       0.011101981 -0.003851252 -0.005420025 -0.121710256
0003a0 d6 f0 a3 3d 18 0e 7e bd de f5 95 3d d9 35 97 3d
       0.0800492 -0.06202516 0.07322286 0.073833175
0003b0 24 b7 e9 bd d2 f7 00 bd 2d d8 7f 3d 2f 04 92 bc
       -0.114118844 -0.03148634 0.06246202 -0.01782426
0003c0 0f 42 40 3c d8 69 b3 3d fe 78 a8 bd 64 9d bd bc
       0.0117345 0.087604225 -0.082262024 -0.023146339
0003d0 ab 67 fc bd d0 18 e2 bc 8c 8d ba bd 58 10 a7 bd
       -0.123244606 -0.027599722 -0.09109029 -0.08157414
0003e0 8e c5 2a 3d 18 3c 82 3d 12 f5 d3 bd 11 bc 37 bd
       0.04169231 0.06359118 -0.10349478 -0.04485709
0003f0 6f 72 6b 3d 2a dc 06 3c 4f 79 da 3d 92 27 0e bc
       0.05748218 0.008231202 0.10667669 -0.0086764265

conv1.bias f4 [64]
000000 37 67 42 3c 1f 97 70 3d 41 1f ca 3d 1a d2 ec 3c
       0.011865429 0.05873787 0.098692425 0.028908778
000010 e1 c1 b5 bd fe ca c2 bd 23 7c a9 3c 8a 82 f2 bd
       -0.0887487 -0.09511374 0.020689076 -0.118413046
000020 a1 28 23 bb 3e e6 00 bb f4 bd 04 3d e9 bb 97 3c
       -0.0024896043 -0.0019668485 0.032407716 0.01852222
000030 3e e7 cd 3d e2 85 5e bd 34 14 d0 3d 10 71 e4 3c
       0.100538716 -0.0543269 0.101601034 0.027885944
000040 f6 1f cb 3c 8e 40 3b 3d 16 0a a0 3d fa c5 d8 bc
       0.024795514 0.04571586 0.07814424 -0.02646159
000050 cb 8f ba 3d cd c2 96 3c 05 11 b8 3d bd 1a 9f 3d
       0.091094576 0.018403435 0.08987621 0.07768772
000060 b2 3c 9c 3d 32 8a ff 3c 79 d2 97 3d 05 e8 a0 bd
       0.07628764 0.031193826 0.07413191 -0.07856754
000070 e9 66 de 3d 23 a7 a5 ba 5c c7 e1 3d e0 f6 a5 bd
       0.10859472 -0.0012638312 0.11024353 -0.08103728
000080 fd 39 b9 bc 60 29 ba bd 2e 61 51 bd 3e ec f4 bd
       -0.022610659 -0.09089923 -0.05111807 -0.11959122
000090 7f 4f ba bd 7b a2 dd 3d f5 7b a2 3d d2 e6 c1 3d
       -0.09097194 0.10822006 0.07933799 0.094678536
0000a0 38 85 8b 3d fd a3 9d bd d7 58 f9 3d 55 ce 44 bc
       0.06812519 -0.07697294 0.12175148 -0.012012084
0000b0 f8 2e e0 3d bc 66 ca bd f5 c0 c0 3d b9 1a aa 3d
       0.109464586 -0.09882876 0.09411804 0.08305878
0000c0 2b ff 3f bd 52 5c ce bd f2 fc 97 bd c9 4f 5d 3d
       -0.046874207 -0.100762025 -0.07421292 0.054031167
0000d0 b5 8a 46 3d 31 8a f3 3c 6d b1 bb 3c dc 99 cf 3c
       0.048472125 0.02972898 0.022911752 0.02534192
0000e0 33 af a7 bc fb 2f 15 3d 5f 40 48 bd 39 f1 02 ba
       -0.020469284 0.03642271 -0.048889514 -0.00049950514
0000f0 84 79 1b bd 2a bc b5 3b a0 de 3c bd 09 0c 9b 3b
       -0.037957683 0.0055461125 -0.04611075 0.0047316593

conv2.weight f4 [32, 64, 3, 3]
000000 12 2d 74 3c 70 4a d8 bc e1 1f 3a 3d cb b6 12 3b
       0.014903324 -0.026402682 0.04544056 0.0022386785
000010 e4 eb 27 bb f8 ba 09 3c 1b c3 c0 3c 54 1d 12 3d
       -0.002562278 0.008406393 0.023530534 0.0356725
000020 e8 f4 03 bd 57 8d 34 3d e2 f3 0d 3d a2 36 f6 ba
       -0.032215983 0.044080105 0.034656413 -0.0018784592
000030 72 8a 86 bc b5 8c 43 3d c1 7c 1e 3d bd d4 1f bd
       -0.016423438 0.04774161 0.038693193 -0.039021242
000040 41 f0 87 bc fa 36 6b 3d ae 4e bc 3a d7 5f dc bc
       -0.016594054 0.057425477 0.001436671 -0.026901169
000050 40 6f c9 3c 39 f1 8f 3c 4c 85 2f 3d 06 9b c0 bc
       0.024589181 0.017571079 0.04285173 -0.023511421
000060 51 d3 9a 3c f8 77 fe bb 02 2a b4 3c 5f eb c4 bc
       0.018899592 -0.0077657662 0.021992687 -0.024038015
000070 83 ab ec 3c ac 71 24 bc c1 ab 8f b9 13 4e 87 3c
       0.028890377 -0.010036867 -0.00027403052 0.01651672
000080 9c ac 05 bd c9 6b 31 bc 43 ec 9b bc 37 20 1e bd
       -0.032635316 -0.010828921 -0.019033557 -0.03860494
000090 a3 67 3d 3d 9e c5 ff 3c fd 47 8b bc ca 1e 6a 3c
       0.046241414 0.03122216 -0.0170021 0.014289567
0000a0 e7 82 ed b9 7e ed c1 ba c8 ee 15 bd de 19 3a 3c
       -0.00045301692 -0.001479551 -0.036604673 0.011358706
0000b0 40 c4 7e 3b 6e c0 35 3d d2 20 a2 bc 17 8d 0a bd
       0.0038874298 0.04437297 -0.01979104 -0.03382596
0000c0 e8 c5 bc ba a1 d4 37 3c 24 ca 91 3c 5b 41 0f 3d
       -0.0014402242 0.011220128 0.017796583 0.034974437
0000d0 7e 28 1a bc 07 78 4d 3c c5 f3 96 3c a7 96 17 bd
       -0.009409068 0.012540824 0.018426785 -0.037008908
0000e0 c0 55 21 bc ac 9a a2 3c 8a 0e b2 3c 7c 3e 45 bc
       -0.009847105 0.019849144 0.021735448 -0.012038823
0000f0 5c 67 02 3c 32 96 1a bd 2d 82 dc bc cf 9b 9e bb
       0.007959213 -0.037740894 -0.026917541 -0.004840351
000100 55 17 d9 3c 80 0a a8 ba a3 fb d6 bc 5c ee 02 bb
       0.026500383 -0.0012820512 -0.026243037 -0.00199785
000110 8d 15 4c 3d 64 61 0f bc 5c a4 93 bc 69 60 44 3d
       0.04982524 -0.008751247 -0.018022709 0.047943506
000120 dd 38 41 bd 03 9a 25 bd f7 88 bf ba d7 c0 a2 bc
       -0.04717337 -0.04043008 -0.0014612962 -0.019867344
000130 8f fe ed bc 2f 6a 44 3a 14 1d 0c bc 57 e6 01 bd
       -0.029052047 0.0007492629 -0.008551855 -0.03171381
000140 a3 00 65 bd 36 38 8f 3d c7 22 b6 3d 54 70 b0 bd
       -0.05590881 0.06993143 0.08893352 -0.08615175
000150 17 ec 22 3e 51 7c 62 3e bd d4 b5 3d 6c bb e6 3d
       0.15910374 0.22117735 0.08878467 0.11266217
000160 8b b6 7f 3d f2 30 53 bd d0 3e 07 3d 75 83 90 bd
       0.062429946 -0.05156035 0.033018887 -0.070563234
000170 72 1a aa bd 22 cd f5 3c 5c 4c 50 bd 4a 0b a8 bd
       -0.08305825 0.030005042 -0.050854072 -0.08205278
000180 d6 c2 f3 3c ad 5d 23 bd 77 5e ee 3c b3 25 36 3d
       0.029755991 -0.039884258 0.029097779 0.044469547
000190 23 37 de 3c 27 c8 28 3d 67 16 ac 3a c5 74 b9 3c
       0.0271259 0.041206505 0.0013129235 0.022638688
0001a0 01 b8 3f bd 11 9f 2c 3d 2f b2 8b 3c 1a 4a af bc
       -0.04680634 0.042143885 0.017052738 -0.021397639
0001b0 55 f7 fb bb 0c 0a b1 3c 24 79 0d 3d 8d 54 ca bc
       -0.0076893964 0.021611236 0.034539357 -0.02469852
0001c0 aa 70 c7 39 5a b8 f7 3b 98 e0 ed bc f9 23 1b 3d
       0.0003804018 0.007559818 -0.029037759 0.037876103
0001d0 58 cb d9 3c 0d 70 bb bc ec 60 ad 3c eb 41 81 3b
       0.02658622 -0.022880578 0.02116438 0.0039446256
0001e0 1c 57 dc bb 7a 17 41 3c 77 5f 07 3d 28 76 93 bc
       -0.0067242514 0.011785382 0.033050027 -0.018000677
0001f0 56 81 05 bb d8 4b 24 bc 71 86 00 3b 57 7d a0 3b
       -0.002037128 -0.010027848 0.0019611383 0.004897754
000200 8a fa 9d 3c dd 97 50 3b 1a d5 3c bd 95 0c a9 3c
       0.019284505 0.0031828799 -0.046101667 0.020635882
000210 3b 00 84 bc 35 3a 68 bc e6 3d d9 bc 0e bb c6 3c
       -0.016113391 -0.014174034 -0.026518773 0.024259117
000220 5b db ad 3c e8 15 ec 3b 51 ef 23 3b 15 5a 9e 3d
       0.02122276 0.00720476 0.002501447 0.077320255
000230 c9 5c ec 3c f7 08 bf 3b 6a 78 9b 3d a1 57 e2 3c
       0.028852837 0.005829926 0.075913265 0.027629675
000240 6e 0b 54 3c 90 d0 08 3a 9b af 90 3c 53 12 cf 3c
       0.012942178 0.00052190665 0.01766186 0.025277292
000250 40 79 09 bc da f5 90 bc 91 8c 6f 3c 83 16 43 bd
       -0.008390725 -0.017695356 0.014620916 -0.04762889
000260 c0 71 d5 bc fc 76 35 3b 8d 72 34 3c a2 51 1c bd
       -0.026055217 0.0027689328 0.011013639 -0.03816379
000270 e3 74 25 bd b0 fc 1c 3c e2 0c 6e 3c 82 44 da bb
       -0.040394675 0.00958173 0.014529439 -0.006660999
000280 96 85 e2 bb 08 38 bc bc 9a 04 e8 3c c0 c8 cb 3c
       -0.0069128973 -0.022975937 0.028322507 0.024875998
000290 e7 83 52 bc 14 15 09 bc 28 20 cf bc 16 7c 3f 3c
       -0.012848831 -0.008366842 -0.025283888 0.011687299
0002a0 7a 02 5c bc a2 08 3e bc 4d fb a0 bc d1 12 9e bb
       -0.013428325 -0.011598738 -0.01965108 -0.0048240204
0002b0 64 ed d1 bc ad 74 9c bc c6 be f5 bc 6d c1 33 bd
       -0.025625892 -0.019098604 -0.029998194 -0.043885637
0002c0 37 b3 3a bc e2 4a bb bc 44 55 bf bc 48 41 a6 bc
       -0.011395267 -0.022862855 -0.023356088 -0.0202948
0002d0 77 ac 09 3d 69 b0 1f 3d 7f bb 9b bc e9 d1 6d 3d
       0.03361174 0.038986597 -0.019010304 0.058061514
0002e0 9b 5a 97 3b 6f d4 f7 bb 56 13 f2 3c 0a 7f 34 3c
       0.0046189553 -0.007563166 0.029550236 0.011016617
0002f0 5c df f4 3c 65 50 1b 3b 9a f7 73 3c d5 aa 54 bd
       0.029891662 0.0023699042 0.014890576 -0.05192073
000300 e5 56 13 3d 42 60 55 3b 7a 6d 17 bd 35 18 19 3d
       0.03597154 0.0032558595 -0.03696964 0.0373766
000310 37 15 1c 3d f3 d7 d7 bc d7 3b fd bc a5 4c 77 bc
       0.03810617 -0.02634809 -0.030912323 -0.015093957
000320 9c 19 00 bd 95 40 24 3c c7 e3 b2 3b ba 16 8a 3c
       -0.031274423 0.010025163 0.005459282 0.01685654
000330 97 e3 b1 bc be 34 c2 ba 9a ce 84 3d 5f 09 a4 bc
       -0.021714969 -0.0014816744 0.064847186 -0.020024
000340 20 bd 6e bc 99 cf a5 3c 43 b3 06 bd 4c aa ac 3c
       -0.014571458 0.020240592 -0.0328858 0.021077298
000350 f9 c1 e6 bc 64 e0 e9 bc 83 8a 1d bc b2 ec 35 bd
       -0.028168665 -0.02854938 -0.009615543 -0.044415183
000360 f4 44 25 bd 0e 41 47 bd ca bb 89 bb ab 91 b3 bd
       -0.040348962 -0.048646025 -0.0042032944 -0.08768018
000370 8d a2 24 be 06 4a 12 bd d3 46 0b bd 23 6e 91 bd
       -0.16077633 -0.035715126 -0.03400309 -0.07101085
000380 f8 82 0f 3c a7 18 35 3d 7a f4 15 3c 91 69 0e 3d
       0.008759253 0.044212963 0.009152526 0.034768645
000390 a1 7b 83 38 05 f5 a6 3c 58 0d 14 3d 75 3a 95 3c
       6.2695945e-05 0.020380506 0.036145538 0.018216351
0003a0 c2 4b 59 3d be 81 d1 ba 0f 96 f5 3b 8d 89 8b 3b
       0.053050764 -0.0015984101 0.007494695 0.0042583407
0003b0 30 44 a7 bb 1d ec 47 3b 50 50 1c bc 02 47 d3 3c
       -0.005104564 0.0030505725 -0.009540632 0.025790695
0003c0 7d f0 fc bb 39 bd be bc 74 bf f2 3c fc a4 9a 3c
       -0.007719098 -0.023283588 0.029632308 0.018877499
0003d0 28 74 4c 3b e2 05 7a 3c 39 aa 39 bc 7e 46 dc 3c
       0.0031197164 0.015260192 -0.011332088 0.026889082
0003e0 22 de 92 3c 53 af 1f 3d c3 2a 3e 3d 7e 74 9a 3b
       0.017928187 0.03898556 0.0464275 0.004713594
0003f0 7d 29 36 3d ac 81 8c bb be a9 0f 3d 45 99 f6 bc
       0.04447316 -0.004287919 0.03507399 -0.030102381

conv2.bias f4 [32]
000000 96 b9 ab 3b cd 75 21 bc 86 81 d4 3b 68 44 bb bc
       0.0052406294 -0.009854746 0.006485167 -0.022859767
000010 1b 29 de 3b 65 63 6a bc 07 37 c1 bc ad f7 15 3d
       0.0067798025 -0.014305924 -0.02358581 0.036613155
000020 9a 4f 0b bd 5f e3 0c 3d da 34 a8 3b 85 40 50 bb
       -0.03401146 0.034396525 0.0051332535 -0.0031776738
000030 de 60 89 3c 01 3f a4 3c c6 40 ea bc 8e 62 f9 3c
       0.016769823 0.020049574 -0.02859534 0.030442502
000040 1b 63 8a 3a 03 00 21 bd fe e0 12 3c f3 e9 32 3d
       0.00105581 -0.03930665 0.008964775 0.043680143
000050 bf dd 1b 3c 48 cd 0a bd ec 55 22 bc a3 2b da bc
       0.009513318 -0.033887178 -0.009908181 -0.026632136
000060 95 83 84 3b 88 13 2a 3c fa 53 ca 3c bf 35 89 3c
       0.004044006 0.010380633 0.024698246 0.016749261
000070 f1 6c c9 bc 58 ad 15 bd fc 58 e7 bc 51 94 ed bc
       -0.02458808 -0.036542267 -0.028240673 -0.029001387

conv3.weight f4 [48, 32, 3, 3]
000000 42 88 52 3d fa 52 0a 3d 0f ce 67 3d 92 86 02 3d
       0.051399477 0.03377054 0.056592997 0.031866618
000010 da 44 4d 3d be 2c 9d bc 2d 56 7a bc 6b 95 d1 bc
       0.05011449 -0.019186374 -0.015279335 -0.025583943
000020 11 57 24 3d 28 5f df bc 42 0a be bc fb 50 99 bc
       0.040122095 -0.027267054 -0.02319825 -0.018715372
000030 15 75 2a bd fc 2f 4a 3b c0 f5 44 bd a5 d5 38 3c
       -0.041615564 0.0030851355 -0.048085928 0.011281406
000040 e4 02 6c bc 6a b9 e4 3c d7 35 dc 3a ad 42 b4 bc
       -0.014404986 0.027920444 0.0016800713 -0.02200445
000050 53 27 60 3d 25 42 a8 ba e2 f5 e3 3c 89 5e f0 3c
       0.054725002 -0.0012837095 0.027827207 0.029341953
000060 28 cb ea 3c 07 46 3e bc 39 d0 3a 39 a9 69 15 bd
       0.028661326 -0.0116133755 0.00017815911 -0.03647772
000070 70 29 77 3c 1f 98 13 bd 75 c2 64 3d 8b 26 b9 3c
       0.015085563 -0.036033746 0.05584951 0.022601387
000080 10 91 a6 bc 25 b5 4d bd f0 59 f4 3c 38 65 64 3d
       -0.020332843 -0.05022158 0.029828042 0.055760592
000090 db 84 17 bc 87 65 21 3d 65 1c 7c 3d 85 92 10 3d
       -0.009247984 0.039403465 0.061550517 0.035295982
0000a0 21 7d 14 3d af 2b 5c 3a b5 4d f6 bb a0 f9 bd 3c
       0.036252145 0.00083988433 -0.0075165876 0.02319032
0000b0 f5 c0 d0 bc 04 66 e2 3c 07 2a 3a 3d fe c4 23 bd
       -0.025482634 0.027636535 0.045450237 -0.03998279
0000c0 5d 4b 51 bc 35 2d 12 bc 58 86 1b bc 5d a1 77 3d
       -0.012774316 -0.008921911 -0.009492479 0.060456622
0000d0 1f d2 0f bd aa f8 4a ba af 7a 5c bb 6c c5 21 3d
       -0.035112496 -0.00077427423 -0.003364246 0.039494917
0000e0 8e bf ca bb 3b 72 17 bd eb 85 ef 3c d5 1d 10 3b
       -0.006187386 -0.036974173 0.029238662 0.0021990438
0000f0 55 5b 48 bd 68 42 09 3d b4 2d 8c bc f7 eb a7 bc
       -0.048915226 0.033510596 -0.017111637 -0.020498259
000100 f1 dc 9a bc 82 cd 43 bd 77 2b 44 bd a8 bb 07 3d
       -0.018904181 -0.04780341 -0.047893014 0.033137947
000110 a4 28 f2 3b 99 9b fe bb 85 c0 3e 3c 1b 22 54 3c
       0.0073900986 -0.0077700135 0.01164258 0.0129475845
000120 a7 69 5a 3d df cc 91 bd 7c 1b 44 3d e2 82 dc 3c
       0.053323414 -0.07119154 0.047877774 0.026917879
000130 e6 ab 63 3d 22 d5 28 3d 67 1d da bc f2 8a 9e bc
       0.055583857 0.041218884 -0.026625348 -0.019353364
000140 bc f8 13 bd 96 60 a6 3c d9 15 ae 3c 15 69 3c 3d
       -0.036125883 0.020309728 0.021250652 0.04599865
000150 b8 5e f1 bc 0a 8c 98 3d eb 88 04 3d 96 bc 64 3d
       -0.02946411 0.07448585 0.032357138 0.055843912
000160 24 c0 4d 3d 58 b7 46 3c e6 5b 11 3d e9 14 c6 3c
       0.050232068 0.0121286735 0.03548803 0.024179893
000170 7b ac 1d 3d a7 ba 99 3d 9a 56 6a 3b 4a b1 88 bb
       0.03849457 0.07506304 0.0035757185 -0.004171525
000180 3b 8e c6 3c 56 14 19 3c 62 96 90 bd 64 a8 5b 3d
       0.024237743 0.009343227 -0.07059933 0.053627387
000190 70 a7 61 3c ed 61 2e 3d 40 bf 7e bc fd 89 1f bd
       0.01377283 0.042573858 -0.015548527 -0.038949955
0001a0 0b ca cb 3c 51 2c 36 bd a1 a4 35 bd fc 7e d6 bc
       0.024876615 -0.044475857 -0.044346455 -0.026183598
0001b0 bc 03 09 bd 11 b5 69 3d ad 8e 16 bd 38 6a 4d bd
       -0.033450827 0.057057444 -0.03675716 -0.050150126
0001c0 e8 f3 bf bc bc 25 7b bc 61 94 00 bd 52 6b 9e 3b
       -0.023431733 -0.015328821 -0.031391505 0.004834571
0001d0 04 ec 09 3d 6d 0c b3 bc 9c cb ad 3c df 27 2a bd
       0.033672348 -0.021856511 0.021215253 -0.04154193
0001e0 76 5d 50 3d 4b 86 f1 bb d9 d2 38 3d 11 51 b9 3c
       0.05087038 -0.0073707453 0.045122955 0.022621663
0001f0 1a 09 d3 3c c1 26 fb bc 74 6e 08 bd 5e f2 d7 bc
       0.025761176 -0.030658128 -0.03330846 -0.026360687
000200 05 ea 2c ba 4d 08 ee 3c 9a af 0b bc bf 8f 0c 3d
       -0.0006596151 0.029056692 -0.008525753 0.034316774
000210 4b ba 8b 3c f8 07 10 3d a5 80 7f 3d df 46 39 3d
       0.017056605 0.03516385 0.062378544 0.045233604
000220 8e 94 68 bc 71 b4 09 bd 36 90 84 3c 33 96 41 3d
       -0.014195574 -0.033619348 0.016182046 0.04726238
000230 08 ec 38 3d 01 17 64 3d a5 69 31 bc e9 f8 e5 3c
       0.045146972 0.055686 -0.01082841 0.028072791
000240 9d 5d b4 bb ea 19 16 3c 2a c8 f4 ba f4 9a ad bc
       -0.0055043236 0.009161452 -0.0018675376 -0.021192051
000250 ba 3d b9 3c 60 7e 8e 3d 9b e2 f9 bb 31 0f 93 3d
       0.022612441 0.06957698 -0.0076258904 0.07180632
000260 8e 99 2c 3d 9f cf 37 3d 2d 30 fc 3c 03 78 db bc
       0.04213863 0.044875737 0.03078469 -0.026790624
000270 06 b7 0b bd 1a 3c 88 bb 63 99 32 3c d8 26 2e 3c
       -0.03411009 -0.0041575553 0.010900828 0.010629378
000280 d6 d1 08 bd 69 8b 2a 3d 06 e1 28 3d a7 6b 86 bb
       -0.03340324 0.041636858 0.041230224 -0.0041021886
000290 5c 24 23 3d ab 64 01 bd ee fe 28 3d 5e 8c 63 bc
       0.039829597 -0.031590145 0.041258745 -0.013888447
0002a0 39 95 db bc 02 2b 6b 3a aa d9 13 bc cc ca bc bc
       -0.026804553 0.0008970947 -0.009024063 -0.02304592
0002b0 1a 3d e5 3c d4 8d 25 3d 69 df 59 3d 89 80 80 3b
       0.027983237 0.04041846 0.053191576 0.0039215726
0002c0 56 0f 89 b9 de e6 37 bd 41 b9 03 bd 37 30 ed bc
       -0.00026142102 -0.044897906 -0.032159094 -0.028953655
0002d0 02 4b 22 bc 10 1f 42 3d a9 48 e2 bd b6 fe 6b 3d
       -0.009905579 0.047392905 -0.11049015 0.05761596
0002e0 76 f7 66 3d a8 fe 05 bd 22 96 dc bd a9 e5 8c 3c
       0.05638834 -0.032713562 -0.10770823 0.017199354
0002f0 d3 0f 31 bd e1 de 35 bd ad 71 cd 3c ca 77 2e bc
       -0.04322798 -0.044402007 0.025078619 -0.010648677
000300 8e 41 ca 3c 87 a3 29 bd 3e 93 11 bd 71 b1 bb bc
       0.024689462 -0.041415717 -0.03554081 -0.02291176
000310 7b f9 ba bb 1f b7 28 bd 06 9c 03 bc 3f a2 83 bc
       -0.00570601 -0.041190263 -0.008032804 -0.016068576
000320 59 d2 d3 3c 81 7a 23 bd 0c c3 48 3d 82 3e 0e bb
       0.025857138 -0.03991175 0.049014136 -0.0021704738
000330 87 82 0e 3d 78 54 e5 bc 08 bf 7e 3d b7 4c 97 3c
       0.03479245 -0.02799438 0.0621939 0.018469198
000340 06 f4 bf bc cb 3d bb bc 05 d3 fe bc 61 61 8f 3d
       -0.02343179 -0.022856614 -0.031106481 0.070009954
000350 75 fa 87 3c 6d c5 1f 3c 60 8e f8 3c 16 52 12 3d
       0.01659892 0.00975166 0.030341327 0.035722815
000360 f5 ed ad 3c 67 df ef bc f6 c7 3f bd a5 a1 5a 3d
       0.02123163 -0.029281331 -0.046821557 0.053376812
000370 f0 bb 5c 3d ac 93 e1 bc 94 0d e8 3c 88 3a 87 bd
       0.05389017 -0.027536236 0.028326787 -0.06602961
000380 89 fc 33 bd 22 08 e6 3c b1 c9 01 3c 49 bf 0e 3d
       -0.04394201 0.02808005 0.007921622 0.034850392
000390 14 f7 47 bb 26 a4 6f 3d 55 4d cf ba c8 c6 7d bc
       -0.003051226 0.058506154 -0.0015815893 -0.015489288
0003a0 e9 79 cd 3c 80 53 14 3d 2e e5 5f 3c 27 eb 63 3b
       0.025082545 0.036212444 0.013665481 0.0034777613
0003b0 cc 1d 20 3c 7f be fc 3c c7 48 9a bc 77 f7 de bc
       0.009772729 0.030852554 -0.018833531 -0.02721761
0003c0 a1 0a f0 3c f3 44 7a 3d ed 10 3f bd a7 be cd bd
       0.029301943 0.06110091 -0.046647 -0.1004613
0003d0 a0 b3 d8 3d 0d 11 37 bd fe 4c 1d 3d df 5d 25 3d
       0.10581136 -0.044693995 0.038403504 0.040372726
0003e0 f5 d1 c4 bd df 82 fe 3c f6 21 50 3d 38 e0 8b bb
       -0.096103586 0.031068264 0.050813638 -0.0042686723
0003f0 f8 94 f5 bc 47 26 4b 3d 04 a4 38 bd 0f ca 69 3c
       -0.02997826 0.04959705 -0.045078292 0.014269366

conv3.bias f4 [48]
000000 09 3c b6 3c ec 77 e5 3c 7b 41 b3 bc fe 0f fb 3c
       0.022245424 0.028011285 -0.02188181 0.030647274
000010 56 81 9f bc ff 73 b9 3c dd 2e 21 3d 4e c5 94 3c
       -0.019470852 0.022638319 0.039351333 0.018160488
000020 09 9a 1e 3d 69 cf bf bc 43 b4 83 3c 18 30 28 3c
       0.038721118 -0.02341433 0.016077166 0.010265373
000030 d9 37 19 3d d0 01 c7 3b b2 20 81 3d d7 e8 47 bc
       0.037406776 0.006073214 0.06305064 -0.012201509
000040 cd ed 0f 3d 4c 04 fb 3c 73 51 26 3d 7d 26 26 3d
       0.035138894 0.030641697 0.04060502 0.04056405
000050 d0 5d c5 3b d8 ca 3f 3d e6 59 b3 3c 66 b2 2e bc
       0.006023146 0.046824306 0.021893453 -0.010662651
000060 1a 77 06 3d 85 aa 57 3c 29 07 26 bc 7c bc 0c 3c
       0.032828428 0.013163214 -0.010133543 0.00858986
000070 1d f2 95 bc bd 82 4a 3d fa 73 18 3d 5e 48 cb 3c
       -0.018303925 0.049441088 0.03721998 0.02481478
000080 fd 41 c3 bc 5f 4c 14 3d 24 8c 15 3d bd 1b de 3b
       -0.023835177 0.036205646 0.0365106 0.006778209
000090 f3 b0 9e bb f9 d5 6d 3c 3d 59 fc b8 e7 68 c7 3c
       -0.0048428713 0.014516347 -0.00012032918 0.024342014
0000a0 af 32 c8 3c 09 14 3a 3d c5 23 a4 bc 9a 10 6a 3c
       0.02443823 0.045429263 -0.020036587 0.014286185
0000b0 2d ce d0 bb 5c 36 ab 3c 0a a5 9c 3b 88 e0 92 3c
       -0.0063722343 0.020899944 0.0047804164 0.01792933
