scripts/model/model4x.pt (torch, 542472 bytes, 6 tensors)

conv1.weight f4 [64, 3, 5, 5]
00000000: 4f10 d6bd b4ea efbc 214a 803d 9b03 25bd
00000010: 56eb 71bc 1c13 b43c 3464 c1bd b810 f8bd
00000020: 97bd ec3d 188b c0bb 41e6 a53c a892 d0bd
00000030: ce63 903d 6476 683c 40b0 533d c735 54bc
00000040: 8012 813d 8311 b53c cfd2 59bd e008 9cbc
00000050: 29de 82bd 79d6 cdbd 6ab9 473d 9aed 8a3c
00000060: 991e 95bd e6c1 09bd e950 f0bd cba8 6a3c
00000070: e096 573d 799f adbd e6b9 c5bd 3d07 f5bc
00000080: f790 783d a002 633d dc73 e5bd 312b fbbc
00000090: b9f1 c6bd 5e75 a3bd d08d ca3d 36d8 de3d
000000a0: cb4b 3c3d b3c9 28bd 599d a53d 4f39 b7bd
000000b0: bedd f1bc 23b9 1a3d 30d7 af3d 274f 88bc
000000c0: b08e b4bd 678b fe3c faec 503d c569 f9bd
000000d0: 9e61 bebd 5c16 be3d d1d5 e23c cde4 00be
000000e0: 6f2a 683b 02c6 02be dada e83d 606e e53c
000000f0: 152c 0abe e757 293d bc71 e0bd 3f40 aebd
00000100: dee5 7a3c a6f2 563d 5922 af3d 44da 8c3c
00000110: b297 89bd a9e5 a1bd 4d75 cc3d e4b5 cb3c
00000120: 3878 b73d d0d0 fb3d 4db9 2c3d cc56 8fbc
00000130: 486b f03c 295b 4c3c 64cd d6bd 83ef 79bd
00000140: ebd9 ab3d 2cb2 ca3c 30ad 81bd 8c90 8dbd
00000150: 7bd4 bf3c cef5 ae3d dbe0 69bd 0edf 6dbd
00000160: bd84 8a3d 5d49 23bd 1cab a83d ea5d f23a
00000170: 2a68 47bd 6450 cfbd a209 3b3d 3374 3ebc
00000180: 8ea4 a8bb beb5 a5bd 76a0 573d 6e0e c43d
00000190: 78ca 713d 9edf a8bd 2dbf c23d 23c4 983d
000001a0: 25d7 573d 871a 6ebc 7195 3f3d 848f e73d
000001b0: 1283 2abd db10 50bd 503b 62bd b635 1d3d
000001c0: 3ea2 b73d 53d5 993d 92b4 99bd 1157 c23c
000001d0: 7e0a a6bd 7961 eabd af2e 9f3d 8697 ab3c
000001e0: 2344 8d3d f745 a83c 1fec 323d 8462 cb3d
000001f0: aeca 293c 06ae a4bc 7d2a a23d 3601 2e3d
00000200: 2145 9ebd 5e43 8cbd dc47 99bd 84e9 a23d
00000210: 6c25 bdbd defa e0bd 65b1 cfbd 12fb b83c
00000220: 51c9 83bd 0219 943b df7f e33d 7060 71bd
00000230: 995c a43d da6d 4d3c 52da c03d d611 553c
00000240: ecef a8bd 5131 43bc e1da c13c 1ad5 c83d
00000250: 463a bf3b 053e e7bd ff15 22bc 8af6 77bc
00000260: 6b0e 263d 2855 c5bd ef30 883d 8ef3 cd3d
00000270: a5cf 8b3d 9094 603d 6b81 0dbc c33d a7bc
00000280: fa26 543c bd7b b63d 955e d8bd a47a c9b9
00000290: 49dd a63d dcd4 1ebd 5e76 b1bc a083 02bd
000002a0: d044 98bd 80f5 2d3c 9102 673c 242d 0e3d
000002b0: 192d 313d d020 20bd 87dc 873c 3b30 403d
000002c0: 5484 a03d e59a af3b ce39 debd 0ac3 a53c
000002d0: 4d66 4bbd ab18 963d 8990 06bd b55e e5bd
000002e0: 06b2 963d 2854 d8bd 8a7a a93d d6d9 bc3d
000002f0: e1e3 e93d 6a05 82bd 2b46 e4bd cb7c 263d
00000300: 8346 a7bd 994b 993c 667f 8b3d 41f6 abbd
00000310: 5cc5 e3bd 177a 08bd b062 81bd 8b1b 883d
00000320: 6d62 9a3d f4e7 9f3b 4bcb 643d 2d46 99bd
00000330: becf 633d 127c a4bd bde4 3abd ec20 08bc
00000340: 4143 3c3d 3446 883d 3e6f 8bbd 44c6 653d
00000350: a5d8 6e3d dfd3 363b 69fa bc3d 3677 c43c
00000360: d7e3 80bd 9dc8 88bc cdec ca3d 8ee6 a73d
00000370: d929 21bc c294 913d 3539 e93d e651 a3bd
00000380: 8aac e6bd 7c1f 85bd db91 0abd cd60 ba3d
00000390: 3460 0f3b 07af 453d 1328 9ebd 200d 9d3d
000003a0: 9076 d43d f459 dfbd 838a e5bb 75b9 0e3d
000003b0: 6223 d93c 1287 94bd 55d1 b13d 4187 463d
000003c0: 1d9e 003d 515d d9bd 550d a33d 4e42 d5bc
000003d0: 3dff d0bd c9aa 11bc d40f e3bc 32e8 ef3c
000003e0: a445 263a 0e42 b13d 426e e83d 2649 913d
000003f0: 0611 d8bd a7ad cebd 7e8f d13d 2ffa 863d
-0.10452329 -0.02928672 0.06264139 -0.04028664 -0.014765581 0.021981768 -0.0944294 -0.12112564
0.11559599 -0.0058759563 0.020251395 -0.101842225 0.07050286 0.014188383 0.051681757 -0.012952275
0.06302357 0.022103077 -0.05317956 -0.0190472 -0.0639003 -0.10050673 0.04876081 0.016959
-0.07281227 -0.03363218 -0.117341824 0.01432247 0.05263412 -0.084776826 -0.09654598 -0.029910678
0.060685124 0.055422425 -0.11203739 -0.030660244 -0.09714074 -0.079813704 0.0989033 0.10881083
0.04597072 -0.04120798 0.08086652 -0.089464776 -0.02952468 0.037774216 0.08585966 -0.016639305
-0.08816278 0.031072332 0.05100725 -0.12178377 -0.09295963 0.092816085 0.027689846 -0.1258728
0.0035425683 -0.12770846 0.113698676 0.028006732 -0.13493378 0.041343596 -0.10959193 -0.08508348
0.015313594 0.0524775 0.08551473 0.01719392 -0.06718387 -0.07905132 0.09983311 0.024867006
0.08958477 0.12295687 0.042168904 -0.017497443 0.02934803 0.012472906 -0.10488394 -0.06101943
0.08391174 0.024743162 -0.06331861 -0.06912336 0.023416748 0.08542977 -0.057099205 -0.05807405
0.06763599 -0.039864887 0.082357615 0.0018491123 -0.048683323 -0.10122755 0.045663483 -0.011624384
-0.0051465696 -0.08091305 0.05264326 0.09573065 0.05903098 -0.082457766 0.0950912 0.07459285
0.052695412 -0.014532692 0.046773378 0.1130667 -0.041628905 -0.050797325 -0.055232346 0.0383813
0.08966492 0.075113915 -0.07505144 0.023723157 -0.0810747 -0.11444373 0.07772576 0.020946275
0.06897762 0.020541174 0.043682214 0.099309 0.010363264 -0.020102512 0.0791826 0.042481624
-0.07728029 -0.06848787 -0.07484409 0.07954696 -0.09235653 -0.10985349 -0.10141257 0.022580657
-0.064348824 0.0045195827 0.11108374 -0.05892986 0.08025474 0.012538398 0.09416641 0.013004741
-0.082488865 -0.011913613 0.02366394 0.09806271 0.005835804 -0.11291126 -0.00989294 -0.015134463
0.040541094 -0.09635383 0.06649958 0.1005622 0.068267144 0.05482918 -0.008636813 -0.020415192
0.012948746 0.0891032 -0.10564915 -0.00038429082 0.081476755 -0.038777217 -0.021662887 -0.03186381
-0.07435 0.010617614 0.014099733 0.03471102 0.0432559 -0.039093792 0.016584648 0.046920996
0.078377396 0.005359041 -0.10850869 0.020234603 -0.04965811 0.07328924 -0.032852683 -0.111997046
0.07358174 -0.105629265 0.082753256 0.092212364 0.114204176 -0.06348689 -0.11146196 0.040646356
-0.08167746 0.018712806 0.06811409 -0.083965786 -0.11121628 -0.03331956 -0.06317651 0.066458784
0.075383045 0.004879946 0.055857938 -0.07484088 0.05561804 -0.08031477 -0.045628298 -0.00830863
0.045962576 0.06654015 -0.06808327 0.056097284 0.058312077 0.002789728 0.092274494 0.023982625
-0.06293457 -0.016697222 0.099084474 0.08198272 -0.009836637 0.071084514 0.113878645 -0.07974605
-0.11263378 -0.06500146 -0.033830505 0.091004945 0.002187741 0.048262622 -0.07722487 0.07668519
0.103741765 -0.10905829 -0.0070050373 0.034844834 0.02650613 -0.07252325 0.08682505 0.048468832
0.03140079 -0.10613502 0.07961527 -0.026032593 -0.10204933 -0.008890816 -0.027717508 0.029285524
0.0006342775 0.08655177 0.11349155 0.0709403 -0.10550122 -0.10091715 0.10232447 0.065906875

conv1.bias f4 [64]
00000000: 114d e83d b84b 813d 0565 c73d 55c6 e2bd
00000010: 624c b23b 582e a53d cf97 8c3c 1731 313d
00000020: 21fb 01bd b2c7 93bd e169 a93d 59f9 d9bd
00000030: 787b 6cbd 1771 833d b1a4 f4bc dd89 c93d
00000040: f8a8 a6bd c39b babd 86c6 17bd af68 5bbd
00000050: 397a af3d fd2f 31bd c836 e13d 005c 30bc
00000060: ace4 27bd e28b ab3d 0ae4 01bd 7994 7dbb
00000070: c2f2 8c3d 0a01 823d 60c6 d4bd 33d3 843c
00000080: 0cb6 19bb d6f9 493d 6214 1b3c 52ea c73d
00000090: daad 663d 499b dfbc 4101 8cbd 4dcd b2bb
000000a0: a046 abbd 29de 953d 3804 ed3c ba9a 87bd
000000b0: 4feb 96bd 9883 53bd 2092 ef3d 4521 ec3d
000000c0: 1c70 943d 6b82 5ebd 1108 8fbd 2fd6 9e3b
000000d0: fa1a cabd ac51 bdbd c7cf 393c cf92 cf3d
000000e0: c676 c03c f26c a1bd 79d4 5e3d a4c1 813d
000000f0: 97ee 5b3d 28c7 913d 1069 23bd 9cd2 eb3d
0.11342824 0.0631327 0.09736065 -0.11072985 0.0054412344 0.0806548 0.017162232 0.043259706
-0.031733636 -0.07215823 0.08272148 -0.106432624 -0.057734936 0.064180546 -0.029863687 0.098407485
-0.08137697 -0.091117404 -0.03705456 -0.05356663 0.08568234 -0.043258656 0.10996777 -0.010764122
-0.040989563 0.0837629 -0.031711616 -0.0038693233 0.0688224 0.063478544 -0.103893995 0.016213989
-0.0023454456 0.049310528 0.009465309 0.0976149 0.05631814 -0.027295725 -0.06836177 -0.0054566027
-0.0836308 0.07317764 0.028932676 -0.066213086 -0.073691 -0.05163917 0.11697793 0.11529783
0.07247946 -0.054323595 -0.069839604 0.00484731 -0.098684266 -0.09244093 0.011341042 0.101354234
0.023494136 -0.07882108 0.05440185 0.06335762 0.053694334 0.07118064 -0.039895117 0.1151478

conv2.weight f4 [64, 64, 5, 5]
00000000: 14bd 063d 74e0 653b ff74 8a3b 5981 e13c
00000010: 8528 ee39 28ed 6e3b 68fd cbbc acbc 4b3c
00000020: 8c35 6bbc 498c 893a bf53 08bd 2f35 54bc
00000030: c6a1 12bc a5a2 1fbb d56d 0dbc 0d6f 1d3c
00000040: 8a02 c33c 53c8 3c3c 5059 f1b9 286d 293c
00000050: 1d2f 0c3d 55e1 85bc 1728 d1bc 46e2 48bb
00000060: e41a 343d 5574 923a 54b4 b23c d934 febb
00000070: 14b6 4c3c 0a52 08bc 33e7 d9bc 3792 85bb
00000080: ec1b 123c 767b b43c 9e05 01bb 00ca 613c
00000090: 699a 35bc ae81 c33b eda0 31bc 205b aebb
000000a0: c9ee 79bc a89e 6a3c c590 833b 1831 52bc
000000b0: f68d f2ba de23 603c 68e5 a6bb 8bb5 353c
000000c0: 9ae3 823c 9031 cf3b 495c 03bc c723 bfbc
000000d0: 464d 20bb 50df b23a bcd7 17bc 65de 91bc
000000e0: e57e 463c 7335 503c 3641 78ba b744 7c3b
000000f0: a5d7 14bb 0007 b9bc 2f63 203b 5b32 cf3c
00000100: 3aad deba 0f03 a23b a62f ad3b 41fd 85bc
00000110: 6e50 f0bb d6b1 7c3a 604d c43c e85e e93b
00000120: 1f89 50bc ff4b ca3c 3425 a43c 563e d83c
00000130: 83c7 5dbc 8daf 13bc 90ac 0fba 0dd1 b3bc
00000140: 1b94 90bc e8ed c23c 1967 e33b 5007 31bc
00000150: 0814 8b3c 172e b23c 56da 0f3b a21e 75bc
00000160: d3b7 083c 63e8 f23b 392d 623c 69ae a83c
00000170: 1ea0 b1bc f142 413c 103d 83bc f879 0d3c
00000180: 101a 6fbb cf14 a23c f915 2f3c b558 09bc
00000190: dd07 e3bb 5e55 c43b 541f d23c b10a 583b
000001a0: 8b25 a0bc 0045 c9bb c742 a4bc b88a bebb
000001b0: fa9b cc3b 8ba1 b0bc 9df3 b2bb 6faf e83c
000001c0: aadb 2d3b ce66 73bc a23e f33c e928 e1bc
000001d0: 515c 093c a046 32bc 7bb4 28bb 4e72 18bd
000001e0: 4c6d a7bb 6137 d1bb 8aed 05bd d2cf 6f3b
000001f0: 3bb4 0cbc 17cb 153c 066a 233b 4c9e 26bc
00000200: 9cf3 34bc 1067 15bc 6e3c a8bc cccb b1bb
00000210: 47d8 383c a09a a73c 7d68 943c dfe4 37bb
00000220: a9a9 b3bc 40c7 c83b 9aa1 9c3b 3521 74ba
00000230: b47f 9f3c 5a9f f53b d7c2 3cbc 6972 3e3c
00000240: 192b c53b 8d29 1f3a 9ab0 123c 3f21 c7bc
00000250: c6ab a33c 131d 44bc e59e 253c 4c34 26bc
00000260: 0387 fdbb b47f 5fbc fc45 833b b419 4abb
00000270: 0a2e ee3b 0539 2cbb 2d94 173b 7e2b 53bb
00000280: d279 4a3c 3003 3f3c 1faa 0abc 8250 e2b9
00000290: 77ca 6e3c 1447 c23c a189 6ebc b94d 2f3b
000002a0: 3bc2 6b3c d107 023c ce38 403c ee26 f6bb
000002b0: a95f a33c ff25 61bc fbe8 b6bc c3ee 533c
000002c0: 7a68 033c 2e1a 88bc 45ec 8a3c cd92 eebc
000002d0: ab98 c03c d229 c8bc f494 11bc b1e8 eeba
000002e0: 6932 23bd c536 22bc 7e38 51bc c3b6 a5bb
000002f0: fec0 a83c 3917 9bbc f8ca 37bb a951 8dbc
00000300: f38d 9d3c 0fb3 163b ff28 70bc 5b61 ccbc
00000310: d298 68bc 0e15 50bb ee4d c63b 9b30 88bc
00000320: 90be c7bb 8a41 6ebc 60dc 74bc 65c1 0f3c
00000330: 778b cebc d6e7 d8b9 b709 ac3b 1aee 8c3c
00000340: 1c46 a5bb 2f1e 073d ecf6 78bc 5b3f ef3b
00000350: 58bf a63c b48d a5bc 35ac 303b 371b 22bd
00000360: c2ae a73c 1b31 fabb 1fbd bb3c f63b fabb
00000370: 8d40 3d3c 2108 5a3c 6bab 7fbb b9a4 5d3c
00000380: 9fdb 84bc 3d4b 603b 9658 97bc b99f a03c
00000390: 86b7 6e3c 8639 17bc 8444 a6bb 90d9 90bb
000003a0: e112 51bc 762b 5dbc 25a5 893b eb45 3e3c
000003b0: 136d c13c 939b 903c be02 403c 1253 91bb
000003c0: 44f5 74bc 8bc0 363c 7ba4 bc3c 7f80 aebc
000003d0: 409d 88bc 2455 48bb dc05 c0bc f77d 36bc
000003e0: 5c9f e4bc ed58 933b 3d0f 64bc f209 5fbc
000003f0: bf4f d73b 81d2 203b 070f d83c 1782 00bc
0.032895163 0.0035076411 0.004225373 0.027527498 0.00045425087 0.0036457274 -0.024901107 0.01243512
-0.014356028 0.0010494079 -0.03328299 -0.012952133 -0.008949703 -0.0024358418 -0.008632143 0.009608996
0.023804922 0.01152237 -0.00046033645 0.010340966 0.03422462 -0.016342798 -0.025531812 -0.0030652448
0.043970957 0.0011173586 0.021814503 -0.007757765 0.012494583 -0.008320341 -0.026599502 -0.004076268
0.00891779 0.022031527 -0.0019687186 0.013781071 -0.0110841775 0.0059663868 -0.01084159 -0.0053209215
-0.015254685 0.014320053 0.0040150606 -0.012829088 -0.0018505442 0.013680426 -0.0050932653 0.0110906465
0.01597767 0.006323047 -0.008017608 -0.02333249 -0.002446012 0.0013646875 -0.009267744 -0.017806241
0.012115215 0.012708056 -0.00094701664 0.0038493106 -0.0022711542 -0.022586346 0.002447318 0.025292566
-0.0016988881 0.0049442123 0.005285221 -0.016356112 -0.0073338067 0.0009639537 0.023962677 0.0071219094
-0.012728005 0.02469444 0.020037271 0.026396912 -0.013536337 -0.009014023 -0.0005480731 -0.02195027
-0.017648747 0.023795083 0.0069397804 -0.010804966 0.016977325 0.021750493 0.0021950207 -0.014960917
0.008344608 0.0074129566 0.013804727 0.020590978 -0.021682795 0.011795745 -0.016020328 0.008635037
-0.003648404 0.019785313 0.010686391 -0.008382966 -0.0069284276 0.005991622 0.025649704 0.0032965357
-0.019549152 -0.0061422586 -0.020051373 -0.0058148764 0.00624418 -0.021561405 -0.00546117 0.028403966
0.0026528635 -0.0148560535 0.029692952 -0.027485328 0.008383826 -0.010881096 -0.002574234 -0.037218384
-0.0051094647 -0.0063847755 -0.032697238 0.0036592376 -0.008587892 0.009142659 0.002493502 -0.010169577
-0.011044409 -0.00911881 -0.020536628 -0.005425906 0.011282033 0.020459473 0.01811623 -0.0028060002
-0.021931486 0.006127268 0.0047800066 -0.00093128096 0.019470073 0.007495803 -0.011521063 0.011623957
0.0060171005 0.000607156 0.008953238 -0.024307845 0.019979369 -0.011969822 0.010108684 -0.0101443045
-0.007737042 -0.013641287 0.0040061455 -0.0030838074 0.007268672 -0.0026279103 0.002312909 -0.0032221968
0.012358146 0.011658475 -0.008463412 -0.00043166062 0.014574639 0.023715533 -0.0145591805 0.0026749207
0.01438957 0.007936434 0.011732293 -0.007511965 0.019943075 -0.013741969 -0.02232789 0.012935343
0.008020515 -0.016614046 0.016958365 -0.029122734 0.023510298 -0.024434004 -0.008885611 -0.0018227306
-0.039842997 -0.009900753 -0.012769816 -0.0050571873 0.020599838 -0.018931972 -0.0028044563 -0.017250853
0.019232726 0.002299491 -0.014658212 -0.024948766 -0.014196591 -0.003175083 0.0060517704 -0.01662474
-0.006095715 -0.014541993 -0.01494512 0.008774136 -0.025212986 -0.00041371462 0.0052501815 0.01720338
-0.005043758 0.03298777 -0.0151955895 0.0073012537 0.020354912 -0.02020917 0.0026958112 -0.039576735
0.020469073 -0.0076352484 0.022917328 -0.0076365424 0.011551035 0.013307602 -0.0039012085 0.0135280425
-0.016218005 0.0034224533 -0.018474858 0.019607412 0.014570123 -0.009230023 -0.0050740857 -0.0044204667
-0.012760849 -0.013499131 0.004200595 0.011613349 0.023611581 0.017652309 0.011719404 -0.0044349516
-0.014951054 0.011154304 0.02302765 -0.021301506 -0.016676545 -0.0030568326 -0.023440294 -0.011138431
-0.02790802 0.0044966848 -0.013919649 -0.013613211 0.006570786 0.0024539533 0.026374353 -0.007843516

conv2.bias f4 [64]
00000000: 4c8c 813c 74e1 b43a 4c5f 7fbc 9cae 53bc
00000010: 0412 9f3c 78b5 c0bc dfbe 0fbc a32f e3bb
00000020: 9839 0bbb fb6f 9d3c a31c 633c b855 2b3c
00000030: 8568 003b a1ef aabb e69d 063c b469 65bb
00000040: b5e8 6ebc 4af3 113d cbab a23c 00a6 9bbc
00000050: c888 e5bb f4c8 0cbb a1e0 a9bc a0e8 a13c
00000060: a01b 88bc ec34 eb3a a91c a3bc c496 80bc
00000070: 3bfa 7d3c f44f b4bb ce8e e63c cbcf 543c
00000080: bf01 97bc 7cb7 2ebc 78db e7bb 4d8c d43a
00000090: 6e08 853c 6c23 8c3b dfed c13c 3ad6 a9bc
000000a0: 91f1 72bb ec14 303c 2598 81bc 3f79 633c
000000b0: 3963 253b f0f3 a73b 5cbe 6c3c 9472 39bc
000000c0: d4ea 67bb b275 49bc 8022 5fbc 6cd7 3c3c
000000d0: ff10 813c 59ed c93b af9c 72bc 5898 cebc
000000e0: 8458 5e3c aac3 6fbc f18c 5fbc 95a2 bdbc
000000f0: 260c 143c f95f 823c 6331 403c 234b d73a
0.01581397 0.00138001 -0.015586685 -0.012920048 0.01941777 -0.023524031 -0.008773535 -0.006933169
-0.0021244045 0.019218436 0.013861808 0.010457449 0.0019593548 -0.0052165543 0.008216357 -0.003500563
-0.014581849 0.03563241 0.019857308 -0.019000053 -0.007004831 -0.0021482082 -0.020736994 0.019764245
-0.016614735 0.0017944849 -0.019911127 -0.01569689 0.015501554 -0.005502695 0.028144266 0.012988995
-0.01843345 -0.010663863 -0.0070757233 0.0016216129 0.016239371 0.0042766836 0.023672996 -0.020732034
-0.0037070254 0.010747176 -0.015819618 0.013883888 0.0025236143 0.005125515 0.014449682 -0.011318821
-0.0035387771 -0.012296127 -0.013619065 0.01152597 0.015755175 0.0061623272 -0.014807864 -0.025219128
0.013570908 -0.014634052 -0.013644443 -0.023148814 0.0090361 0.015914904 0.011730525 0.0016425591

conv3.weight f4 [48, 64, 3, 3]
00000000: 8841 46b9 2bb6 17bd 6712 23bd f3d5 913b
00000010: 6916 173c b514 263c 37a4 00bd a851 70bb
00000020: c155 1bbd e6e3 903c 2c95 113d 8537 053b
00000030: be4f 9bbc 3fe6 843d 2742 a23c f7dd 32bb
00000040: f5a2 5ebc ed90 24bd 0245 e8bc 5ae7 5ebd
00000050: 00e1 843c 7252 3dbd 6918 b6bd 9ca3 c93c
00000060: 5d29 dbbc 7a50 1a3d 01ab 0dbb c1f9 ad3b
00000070: 9671 03bd 4fe6 f13c 6eef 1b3d b5c3 6a3c
00000080: 82d5 0abd 8936 883b b16f f5bb e1a0 033d
00000090: 9d02 48bb 15a7 dc3c 7fd2 67bb 9408 4bbb
000000a0: ed03 573d 0bc3 bc3c 4f26 c3bc 766d 6b3b
000000b0: def8 d23c 4429 00bd 0503 063d 1547 4f3c
000000c0: 0ce1 f93b ca3e 15bd 1a3e cbbc 9d6e bd3c
000000d0: 999e d8bc d8df 29bb 8b8e 043d dabb 1b3d
000000e0: 8796 2a3d 9c6a 8abc a2fd 98bc cb08 1c3d
000000f0: 976e a63c ef6e 333c 0fd5 29bc b502 1a3d
00000100: b54d cabb 2dab f0bb 0621 1b3d aeb9 9bbc
00000110: 71f3 b4bc 99ca a23c 5528 043d c16a c63c
00000120: 2abc 1dbd 05fc 5b3c 4a4c faba 15e0 8b3c
00000130: 1310 193d 613c 023d bdf3 ce3c cba7 193d
00000140: a0c8 e0bc abdc 993b 1f3a c93c 2174 fa3c
00000150: 063f 363a 3f7b f7bc 3bfd 133d d15e e8bc
00000160: dfe8 debc 4510 933a 1b5e b7bc 917a cb3c
00000170: c97c 90bc 75e8 a93c 2f9a 0fbd 58ce 31bc
00000180: 0886 b43b b269 483c d16f 74bc 900d 5c3c
00000190: 783c 95bc 8aca 49bc 56df da3c f390 97bb
000001a0: 06ac bcbc 6dde aa3c 8f5c cdbc 1c29 cdbc
000001b0: 9bfc df3c 1dc1 87bc a1fe 133d 09a9 84bc
000001c0: 9dae 8bbc 1bf3 173d 332c cf3a 9903 2e3d
000001d0: 99fc 923b 4b3c e13b 9b2b 0abd 289d 3ebc
000001e0: 9211 1a3d b333 8fbc 4395 1cbd 3ba8 863c
000001f0: 7ecc 05bb 7acc 32bc 0e80 57bc 0774 afbc
00000200: 7613 b03c 0478 943c 7e6e 653c a044 02bd
00000210: 9935 8bbc b9c1 a33c bed7 36bc 908a ac3c
00000220: 6803 bdbc 7d32 2f3d 1c99 2ebc c385 923c
00000230: e552 5c3c 3667 ce3b 3b7b 91bc ff98 f3bc
00000240: 2d9c 81bc 31e9 023d 03c3 c4bc 8523 8b3c
00000250: aa1d 57bb de53 9e3c e88a fbbc 9960 2a3d
00000260: ea38 883c 4355 9dbc 4b9b cc3c 1094 e9bc
00000270: 3be7 6b3c 8772 2c3d 3523 72bd 83e0 ccbc
00000280: 966f efba 32e7 2d3c 538c a8bc 7280 153d
00000290: fd81 f2b9 1cfc 23ba 1217 b43c 30d8 20bd
000002a0: 9dc4 2c3d b2ad 36bb 6137 01bd 17c1 79ba
000002b0: ea59 893c 9eff c73c 03dc afbc 709e 44bc
000002c0: 7a7e 673b c8ce 483b f6ae d33c fdd4 a43c
000002d0: 1362 e7ba b115 5d3b 5138 e63c 85d3 9bbc
000002e0: c2b2 913b 2a1e c3bc 81ab 263d 299a 0cbc
000002f0: bd42 813c 9ad5 043d 0a91 183d a7fd 223d
00000300: 023f b43c f192 64bc 6bad ce3c 471e 19bd
00000310: d90b 97bc 669e 13bd 8d9c 2abc 3a61 a53c
00000320: cd96 a4bc 31d9 8ebc a628 0abd 6ec1 9bbc
00000330: 68d7 acbb 0ad2 e63c b903 12bd 3265 ccbc
00000340: c3e7 19bd 9905 11bd 1048 103d 8119 e33b
00000350: fa4d 153d bfe7 0e3c bb45 a6bb 35ef 063d
00000360: 39ee 283d a063 e8bc c063 1e3d b800 eebc
00000370: 5ae4 f03c cf70 293d 7be7 cbbc a244 f63c
00000380: 6497 0f3d ea71 54bb d6eb 19bc 3a78 a93b
00000390: 93ea b93c 0080 bcbb 6230 ae3c 30a5 493c
000003a0: 580a 243d 319c c3bb b15f 9a3c 6c21 1fbd
000003b0: 62ab 443c 941a 0dbd 0c32 f63a 3a4f c6bc
000003c0: e580 073d df86 a63c 1573 e03b 09b6 39bc
000003d0: 210b e03c 28bc 293d 7582 d63c 6235 fcbc
000003e0: 396c 0b3d 3a6b 24bb 4c9f c13b 75b2 c33c
000003f0: 594c dabc 1cd2 f73c 9495 a23c d3a8 3a3d
-0.00018907164 -0.037038963 -0.03981247 0.0044505536 0.009221652 0.010136773 -0.031406607 -0.0036669765
-0.03792358 0.017686795 0.035542652 0.0020327282 -0.018958922 0.064892285 0.019806935 -0.0027292946
-0.013588657 -0.040177274 -0.028353218 -0.054419853 0.01622057 -0.046221204 -0.088913746 0.024614148
-0.026753122 0.037674405 -0.002161682 0.005309314 -0.032090746 0.029528765 0.038070135 0.014328887
-0.033895023 0.0041568917 -0.0074901213 0.032135848 -0.0030519136 0.02693514 -0.0035373268 -0.0030980455
0.05249398 0.023042222 -0.023821978 0.0035923398 0.025753435 -0.031289354 0.032717723 0.012651225
0.0076257046 -0.036436833 -0.024809886 0.023124034 -0.026442813 -0.0025920775 0.032362502 0.038020946
0.04164746 -0.016896538 -0.018675629 0.038094323 0.020316405 0.010951742 -0.0103657385 0.037600238
-0.006173814 -0.0073446245 0.03787329 -0.019009437 -0.022088738 0.019871997 0.032265026 0.024220826
-0.038509525 0.013426785 -0.0019096222 0.017074624 0.037368845 0.031795863 0.025262708 0.037513535
-0.027439415 0.004695495 0.024563847 0.030572953 0.000695214 -0.030210136 0.03613017 -0.028365524
-0.027210651 0.0011220059 -0.02238374 0.024838718 -0.017637627 0.020740727 -0.03505915 -0.010852419
0.005509142 0.012232231 -0.014919237 0.013430968 -0.01821731 -0.0123163555 0.026717823 -0.0046254336
-0.023031246 0.020858014 -0.02506855 -0.025044017 0.027342131 -0.016571576 0.036131505 -0.016193883
-0.017051036 0.037097078 0.0015806019 0.0424839 0.0044856784 0.0068736426 -0.03373299 -0.011634149
0.037614413 -0.017480707 -0.038228285 0.01643764 -0.0020416076 -0.010913009 -0.013153089 -0.02141763
0.021493655 0.018123634 0.014003394 -0.031803727 -0.01699333 0.019989835 -0.011159835 0.021062165
-0.023072913 0.04277276 -0.010656621 0.017886048 0.013447498 0.006298925 -0.017758956 -0.02973604
-0.01582154 0.03196067 -0.02401877 0.01698471 -0.0032824078 0.0193271 -0.030705884 0.04159603
0.016628701 -0.019205695 0.024976393 -0.028512985 0.014398391 0.04210141 -0.059115607 -0.0250094
-0.0018267508 0.010614203 -0.020574724 0.036499448 -0.00046254686 -0.0006255524 0.021983657 -0.039268672
0.042179693 -0.0027874527 -0.031546954 -0.0009527369 0.016766507 0.02441388 -0.021467214 -0.012000665
0.0035323189 0.003064083 0.025840264 0.020121092 -0.001765313 0.0033734853 0.028103026 -0.019021759
0.0044463584 -0.023818094 0.040690903 -0.0085816765 0.015778894 0.03243027 0.037247695 0.039792683
0.0220027 -0.013951049 0.025229177 -0.03738239 -0.018438267 -0.036039732 -0.010413301 0.020187963
-0.020091439 -0.01743755 -0.03373017 -0.019013133 -0.005274702 0.028176326 -0.03564808 -0.024950597
-0.03757454 -0.03540573 0.035224974 0.0069305305 0.036451317 0.008722245 -0.0050742305 0.03294297
0.04124281 -0.028367817 0.038669348 -0.029053077 0.029405762 0.04136735 -0.024890652 0.030062024
0.035056487 -0.003241653 -0.009394607 0.005171803 0.022694862 -0.0057525635 0.021263305 0.01230745
0.040048927 -0.005969547 0.018844457 -0.038850233 0.0120037515 -0.034449175 0.0018783226 -0.0242077
0.033081908 0.020327983 0.0068496563 -0.0113349045 0.027349057 0.041439205 0.026185254 -0.030787174
0.034038756 -0.0025088326 0.0059088822 0.023888806 -0.026647734 0.030251555 0.019846715 0.04557116

conv3.bias f4 [48]
00000000: 4e66 e63b af8e 03bb 198e 153d 47c6 cdbb
00000010: 0e22 debc 2986 2b3d 6a8e 5ebc 3b69 183d
00000020: c17c 4a3a 2d34 113d 570f b9bc 771e c83c
00000030: 79c7 fb3b d0a2 2b3d 5a31 203c 27f0 063c
00000040: 2378 66bc 0a74 173d 6209 5b3c 1189 9bbc
00000050: d2a4 113d c2cb e6bc 78c1 263b 8c07 66bc
00000060: 3f80 233d 42c1 033c 3b22 293c 8b62 20bc
00000070: 79ef b4bc a654 3ebc 9832 d7bb 8657 cbbc
00000080: 49ba 7dbc 7c07 6f3c 14d4 ea3c a688 ff3c
00000090: 6f33 2bbb f594 60bc a03d 8cbc bd0c f63c
000000a0: 8cfa e93b 9405 26bc f951 0c3d 1459 4c3b
000000b0: 01d9 0a3d 840a 07bd 2daa 08bd 5369 2e3d
0.0070312386 -0.002007406 0.036512468 -0.00627974 -0.027115848 0.041875992 -0.013583759 0.03720973
0.0007724278 0.03545015 -0.022590322 0.02442859 0.007683691 0.041903317 0.009777391 0.008235968
-0.014066729 0.036975898 0.013368936 -0.018986257 0.035557576 -0.028173331 0.0025444906 -0.014039885
0.039917227 0.008041682 0.010323103 -0.0097891195 -0.022086846 -0.011616861 -0.0065673105 -0.024822008
-0.015486308 0.014589187 0.02866558 0.031193089 -0.0026123186 -0.013707389 -0.017119229 0.030035371
0.007140463 -0.010133166 0.034257863 0.0031181024 0.033898357 -0.032969013 -0.033365417 0.042580914
