scripts/drafts/Puyuan/espcn_model.pth (torch, 151536 bytes, 6 tensors)

conv1.weight f4 [64, 3, 5, 5]
000000 3a a8 3b bb f6 ed cc 3c d9 80 3c 3d 59 66 23 bc
       -0.0028634206 0.025015812 0.046021316 -0.009973132
000010 84 35 d1 3c 92 97 c3 3d dc 25 cf bd ba 13 38 bd
       0.025538214 0.09550394 -0.10114643 -0.044940688
000020 40 0f 04 bd b2 bf 20 3d 26 1b 02 3d 20 9d 85 bd
       -0.032241106 0.039245315 0.031764172 -0.0652411
000030 cc d6 d2 3d a2 b9 8f bd 5c 28 2f 3d a5 77 18 bd
       0.102948755 -0.070178285 0.0427631 -0.037223477
000040 73 dc 37 3c 17 a0 c3 bd 89 20 a8 3d 8f 2d 45 bd
       0.011221993 -0.09552019 0.082093306 -0.04813915
000050 ea d3 96 3d 48 c3 70 3d 20 dd b2 ba 97 d5 88 3b
       0.07364638 0.058779985 -0.0013646223 0.0041758525
000060 9f 28 e5 3d 17 ed c2 3d c1 ed 9e bd f5 0e de bd
       0.111893885 0.095178775 -0.07760192 -0.108426966
000070 db 09 b5 bd 69 1d aa bc 55 10 c5 bc a2 8c 8c bd
       -0.088397704 -0.020765977 -0.02405564 -0.06862761
000080 c1 9b ad bd 7f 01 39 3c db 12 f1 3c 62 8e 99 bb
       -0.08476973 0.011291861 0.029427936 -0.004686163
000090 1b f4 92 bd a2 f2 c4 bc b7 bc 29 bc e2 bf d0 3d
       -0.07175466 -0.024041478 -0.0103599345 0.10192849
0000a0 bb 49 9e bd e7 b4 0c 3d 0e 48 40 3d 69 dd dc bd
       -0.07728907 0.03435221 0.046943717 -0.10784418
0000b0 28 e5 66 3d 1a ca 22 3d 90 99 c8 3d b8 fc 75 bd
       0.056370884 0.03974352 0.09794915 -0.060055465
0000c0 d5 9c 52 3d 6a 0d 03 bd 93 7d ce bd 29 cb 54 3d
       0.051419098 -0.031995215 -0.10082545 0.05195156
0000d0 f9 a5 02 bd d2 7f 1a 3d d6 c4 97 bd e3 17 a0 3d
       -0.031896565 0.037719555 -0.0741059 0.07817056
0000e0 40 fd 79 bd c1 ff 04 bd 17 6a 95 bd 21 e6 a9 bc
       -0.061032534 -0.03247047 -0.07295626 -0.020739617
0000f0 1c cb fc 3c ee b9 f6 bd 61 a8 73 3d f1 dc 84 3c
       0.030858569 -0.12047182 0.05948675 0.016218634
000100 03 4b 78 3d bd 68 6c bd 39 b2 08 bb 2a b4 cd 3d
       0.06061841 -0.057717074 -0.0020858182 0.10044129
000110 5e 23 4e 3d 57 5a dc bd 35 9f 9e bd e1 7a be 3d
       0.050326698 -0.107594185 -0.0774521 0.09300781
000120 a3 55 53 bd e4 14 a2 3d 07 3d 8f 3d 27 81 e1 3c
       -0.05159534 0.07914141 0.06994062 0.027527405
000130 48 87 93 3c cc 20 c2 bd 06 2e af bd 79 58 10 be
       0.018008843 -0.09478912 -0.085537 -0.1409625
000140 2d b2 ec bd b8 6c 67 3d c3 65 14 bd 92 9d 8e 3c
       -0.11557422 0.056500167 -0.03622986 0.01740912
000150 46 75 52 bc 0e 0e b7 3c 0e 0c fb 3c 08 0f 0a bc
       -0.012845343 0.022345569 0.030645397 -0.008426435
000160 dd 4b b8 3d 0e fa 2d bd d4 99 f0 3c 09 5b 93 bb
       0.08998845 -0.0424748 0.029370226 -0.004496936
000170 68 fe b6 3d 22 27 95 3d 6e 80 ec bb 38 25 6d 3d
       0.08935243 0.072828546 -0.0072174584 0.057896823
000180 72 77 aa bd 63 0e bb bd ad fe 93 3d 82 11 8f bb
       -0.08323564 -0.091336034 0.0722631 -0.0043661008
000190 96 96 86 bd 15 fa e5 3d 71 f1 bd 3c 85 ca 86 3c
       -0.06571691 0.1122934 0.023186417 0.01645399
0001a0 8f f7 46 bd 4f fd ae 3d 49 70 8d 3d ec b3 97 bc
       -0.048575934 0.085444085 0.06906182 -0.01851841
0001b0 16 5d 88 3d a2 a9 a0 bc 7c 0c c1 3c 06 01 0d 3d
       0.0665838 -0.019612137 0.023565523 0.034424804
0001c0 e6 33 c7 3d 4c 91 0b 3e 32 dd d6 3d 94 64 ec bc
       0.09726696 0.13629645 0.104914084 -0.028856553
0001d0 2e 61 8c 3d a8 90 8f bd 17 8c 74 bd d7 c3 17 3c
       0.06854473 -0.07010013 -0.059703913 0.009263
0001e0 24 b1 84 3b 22 22 a9 bd 55 d9 20 3d 24 2e 3f 3c
       0.004049437 -0.082584634 0.039269764 0.011668716
0001f0 97 a3 70 3d 37 f0 92 bd 4e e2 2f 3c b2 29 83 bc
       0.05874976 -0.071747236 0.010735108 -0.016011093
000200 78 98 9e bc 90 27 55 3d 20 b6 51 3d 6d f6 41 bd
       -0.019359812 0.052039683 0.05119908 -0.04735415
000210 22 de 1e bd 17 28 28 bd 1d 35 c2 3d 0d dc 8a bd
       -0.03878606 -0.041053858 0.09482787 -0.067802526
000220 a2 ee 17 bd 19 ce 8f 3d 9f a1 2e 3d aa 44 c1 bd
       -0.037092812 0.07021732 0.042634603 -0.09436925
000230 3c f6 dd 3d 7d 35 b7 bd 77 a5 cc 3c d8 a6 f6 bd
       0.10837981 -0.08945749 0.024981244 -0.12043542
000240 9a dc c0 bd cb 28 ba 3d bb 5d 10 bd e8 13 a4 3b
       -0.094170764 0.09089812 -0.03524564 0.005007256
000250 79 b3 76 3d fc d5 fd 3c 5a d8 1e bd c5 43 53 bc
       0.060229752 0.030985825 -0.038780548 -0.0128945755
000260 41 bd ea 3d 77 38 d3 3d d0 57 87 3c a3 0b 3c 3d
       0.114618786 0.10313504 0.016521364 0.045909535
000270 f6 1b cb bd 52 49 6a 3d 31 fa cd 3d 95 91 7d bd
       -0.099174425 0.05719883 0.10057486 -0.061906416
000280 d4 e3 14 3d 25 b5 90 3d 4d 9b 4f bd 12 b6 e3 3d
       0.036350086 0.070658006 -0.050685216 0.111187115
000290 9a 80 0a bc 25 53 d4 3d 29 73 ab 3d e4 97 ab 3c
       -0.008453513 0.10367421 0.083715744 0.02094645
0002a0 8c 5b c3 bd b7 b4 75 3d d8 c8 a2 bc 2a 7c b0 bd
       -0.095389456 0.059986796 -0.01987116 -0.086174324
0002b0 58 b3 90 3c 81 2d 16 bd bf 0d a9 3d c9 84 31 3d
       0.017663643 -0.03666449 0.08254575 0.043339524
0002c0 d9 4a 5e bd f4 9d c7 3d 14 4b a8 3d 76 f8 22 3c
       -0.0542706 0.09746924 0.08217445 0.009946933
0002d0 fb ef 12 bd c9 48 a9 bc 08 a2 6b bd bf a8 27 bd
       -0.035873394 -0.02066459 -0.057527572 -0.040932413
0002e0 53 61 63 bd 42 fb 76 bd 90 83 77 bb 98 8b ab 3c
       -0.055512737 -0.060298212 -0.0037767626 0.020940587
0002f0 46 74 4e bd ee 09 1c bc 3b ef 3b bd 2b ae cf bd
       -0.050403856 -0.009523852 -0.045882445 -0.10140642
000300 09 6c 4b 3d 16 16 bd bc a8 b8 b1 3c 1b e0 52 bd
       0.049663577 -0.02308182 0.021694496 -0.051483255
000310 8b a6 6e bd 39 59 3c 3d 4e 8c c4 bd c0 47 b4 bb
       -0.058264297 0.045983527 -0.095970735 -0.0055017173
000320 f8 5a 13 3d 7d a2 b6 3d 2f 47 7e bd 6a 6b d1 3d
       0.035975426 0.08917711 -0.062079605 0.10225566
000330 71 bf b3 3c 1f d5 13 3c 83 25 95 3c 6c 51 88 3d
       0.021941872 0.00902298 0.018206364 0.06656155
000340 26 d7 ae 3d ea 3f 36 3c 8e 0e 55 3d 54 f7 28 3d
       0.0853713 0.011123637 0.052015834 0.041251495
000350 8e 1e f9 3b 9e 86 c8 bd b7 57 31 bd 73 4a e6 bc
       0.0076025194 -0.09791301 -0.043296542 -0.028111672
000360 56 ee 85 bd 18 b3 0f 3d 92 f7 9a 3c 08 22 8b bd
       -0.065395996 0.035082906 0.018916879 -0.067936
000370 43 c2 b2 3d 26 af c5 bd f7 e0 c1 bd 4f d3 82 bd
       0.08728459 -0.096525475 -0.09466737 -0.0638796
000380 69 cd 08 bc ea f1 34 3d ea 6c 95 3d 7f 0c b5 bd
       -0.008349755 0.04417602 0.07296164 -0.08840274
000390 8e c9 05 3d f6 df 42 bd a5 72 59 3d b9 65 bc bc
       0.03266292 -0.047576867 0.05308785 -0.022997724
0003a0 be 5d af 3d cf e3 ed 3c 02 33 88 3d ba 00 c3 bd
       0.08562802 0.029039292 0.06650354 -0.09521623
0003b0 8d 6b 88 3d 02 fa fb bd 81 43 9a bd 72 68 e6 3b
       0.06661139 -0.123035446 -0.075324066 0.007031494
0003c0 05 20 d9 bd 18 8c f9 bd 15 9b f8 bc f8 c9 b5 3d
       -0.1060181 -0.12184924 -0.030347386 0.08876413
0003d0 1f 5b a7 3d 29 5f ad bd 9c 51 5b 3d c9 bd 84 bd
       0.08171677 -0.08465416 0.053544626 -0.06481511
0003e0 0a 4f a1 3c b1 a6 99 bd a7 73 89 3d bd ce 85 bd
       0.01969101 -0.07502497 0.06711512 -0.06533573
0003f0 f4 26 ab bd 47 2f 6a bd bd 1f af 3d c0 06 b3 3d
       -0.08357039 -0.057173993 0.085509755 0.08741522

conv1.bias f4 [64]
000000 a9 5c a5 bd 67 3b 18 3d 06 74 ab 3d 06 dd d9 bc
       -0.08074314 0.037166025 0.08371739 -0.02659465
000010 d1 f7 04 bd 42 1d a6 3d 57 3b 94 bd 91 26 90 3d
       -0.0324629 0.08111049 -0.07237881 0.07038606
000020 03 eb 48 3b 8d 56 dd bd 04 98 80 3c de b9 e3 3d
       0.0030657656 -0.10807524 0.015697487 0.11119436
000030 42 ee 67 3c 52 f1 4e bd 6b af 76 3c 62 8c e3 bd
       0.014155926 -0.05052311 0.015056471 -0.1111076
000040 87 8d a4 bc 57 00 a7 3c 2f 2a 98 3d 80 ff e3 3d
       -0.020087017 0.020385904 0.07429921 0.11132717
000050 74 e6 e6 bc d7 5b 23 3b f4 a5 34 bc f8 ad 76 bd
       -0.02818606 0.0024926567 -0.011025894 -0.060224503
000060 80 93 c5 bd f9 e6 cd bd 03 f6 ba bd fe b1 36 3b
       -0.09647274 -0.1005382 -0.09128954 0.0027877088
000070 f5 d3 e4 3d 10 61 29 3d a7 54 79 3d 9a 90 0c 3d
       0.1117324 0.04135233 0.060871746 0.03431759
000080 4f 85 4c 3c 42 cd d0 bc fa 7f 2a bc d4 d6 80 3a
       0.012482955 -0.0254885 -0.010406489 0.0009829649
000090 5b bc 67 bd c8 a3 99 bd 68 cf 39 3c ff b0 93 3c
       -0.056576114 -0.07501942 0.011340953 0.018028734
0000a0 da e4 00 3d 40 f5 0a bb d0 d9 a8 3d 28 9f 33 3d
       0.03146825 -0.002120331 0.082446694 0.043852955
0000b0 85 c6 1c 3c 24 56 99 3d 09 a6 ce bc 1e 09 01 bd
       0.009568815 0.07487133 -0.025225656 -0.031502835
0000c0 3d 5d a5 bd f4 58 c7 3d 90 9d aa 3b a4 63 d1 3d
       -0.080744244 0.09733763 0.005206771 0.10224083
0000d0 a8 83 88 bd 89 81 13 bd e7 2d dd 3d f7 38 a1 3c
       -0.066657364 -0.036012206 0.10799771 0.019680483
0000e0 29 26 d3 bc 2f fb 39 3c 8a ff a0 bd b4 3e a5 bc
       -0.025775032 0.011351391 -0.0786124 -0.0201715
0000f0 f9 15 58 bd bf d5 d9 3d 11 fb 3c 3d cd 08 8e bd
       -0.05275533 0.10636472 0.046137873 -0.06935272

conv2.weight f4 [32, 64, 3, 3]
000000 5b b5 2c bd 6e 0e 91 3d d3 82 bf bd 07 2c 35 3d
       -0.04216514 0.0708283 -0.093511246 0.04423144
000010 13 b9 9c bd fc 8a 30 3c db 51 21 bd 9b 27 ca 3a
       -0.076524876 0.010775324 -0.039384704 0.001542318
000020 1a 7a e9 3d 60 f3 57 bc da d5 16 3e ec 1e d2 bc
       0.11400242 -0.013180584 0.14730015 -0.02564951
000030 92 cf 1b 3e 41 a5 df 3d d6 33 3c b9 85 ea 4a bd
       0.152159 0.109201916 -0.00017948388 -0.04954006
000040 d7 ec 28 3c 39 e9 c5 3d 22 07 ab 3c 9e 1a 75 3d
       0.010310373 0.09663624 0.020877425 0.059839837
000050 c1 4c 38 3d 76 da 30 3d 74 f5 c0 3c 1a cc ae 39
       0.044995073 0.04317709 0.023554541 0.00033339934
000060 72 b0 b2 3b b7 cc 90 bc 52 0e 0b 3d cf ff 3b bd
       0.005453163 -0.01767574 0.033949204 -0.045898255
000070 fb da 47 3c 3b e8 17 bd 28 e4 2a 3c 55 4a cf 3c
       0.012198205 -0.037086707 0.010430373 0.025303999
000080 2b 32 28 bd 65 38 f8 3c 37 02 f9 3b 0c 45 90 bc
       -0.04106347 0.030300329 0.007599141 -0.01761105
000090 b5 51 1a bd 21 5f d0 ba 96 8c d2 bb a4 27 1c bd
       -0.03767558 -0.0015897491 -0.0064254506 -0.03812374
0000a0 2d 74 e3 bc 7a 7b aa bc 45 4e 24 3a 35 18 68 3c
       -0.027765358 -0.020810831 0.00062677666 0.014165928
0000b0 b0 be 9a bc ad a1 64 3d b0 c1 c0 3c d4 6e 1f 3d
       -0.018889755 0.05581825 0.023529857 0.038924053
0000c0 b5 ab 72 bc 6e 91 8d 3d 48 71 d2 3c b2 7e 15 bd
       -0.014811446 0.06912504 0.025688782 -0.03649778
0000d0 42 61 e2 3c 5a 3a 70 3b 5a d9 b3 3e 89 79 b0 bc
       0.027634267 0.0036655874 0.35126764 -0.021542327
0000e0 9b b3 8f 3d a7 78 af 3e 26 48 00 3e 89 e1 58 3e
       0.07016679 0.34271738 0.12527522 0.21179785
0000f0 60 3a 31 3e 7a 23 c0 3c ef 84 b4 3d 82 dd bb bc
       0.17307425 0.023454417 0.088144176 -0.022932772
000100 b7 88 cd 3b 88 62 b5 bd 63 4f fd 3c cb a2 77 bd
       0.006272401 -0.08856684 0.030921644 -0.060457986
000110 bb da db bb 89 4a 3c 3d a7 38 87 3d 7c 39 62 3d
       -0.0067094243 0.04596952 0.066026025 0.055230603
000120 29 57 8c bd 85 69 2b 3e f4 f9 42 be 89 42 8d bc
       -0.06852562 0.16739471 -0.19040662 -0.01724364
000130 13 1f 75 3e 88 3d 29 3e 47 0d cf 3b fc a3 60 bd
       0.23937635 0.16527379 0.0063187215 -0.054843888
000140 21 52 10 3d 16 03 84 bd f6 e5 1c 3d 88 69 98 3b
       0.035234574 -0.06445901 0.038305245 0.004651252
000150 bc f8 25 bb cb a7 9f bc 68 80 1d bc fc 0c f3 bc
       -0.002532526 -0.01948919 -0.009613134 -0.029669277
000160 78 46 30 bd f1 d2 45 3d 6a 69 3c bd 8d ca 5c bc
       -0.043035954 0.048296873 -0.04599897 -0.013476026
000170 a5 6e e8 bd 94 43 81 bc 90 28 03 3d ed ec 0f 3d
       -0.11349229 -0.015779294 0.032021105 0.03513806
000180 a3 52 5a 3d 2e 4b 2d bc dd fb 04 3c 70 3b 03 bd
       0.053301465 -0.010577006 0.0081166895 -0.032039106
000190 16 93 35 bb 2f 19 0c bd 35 80 a8 3d 8b 43 10 3d
       -0.0027706078 -0.034203704 0.082275786 0.035220664
0001a0 45 97 01 3d d2 60 b9 bc 99 1b 5a bd b5 4c 36 bd
       0.031638402 -0.022629175 -0.053248975 -0.044506747
0001b0 73 a0 02 3e f7 fe 19 3e a0 89 8f bd 64 48 7a bd
       0.12756519 0.15038668 -0.07008672 -0.061104193
0001c0 88 ac 6b 3c 70 14 4d 3d 63 9d b0 3e 92 b3 1e be
       0.014384396 0.05006832 0.34495077 -0.15498188
0001d0 4d 53 cb bd 89 17 93 bb fd d0 e4 bb 63 17 57 3c
       -0.09927998 -0.0044888896 -0.006982921 0.013128134
0001e0 2e 6a 50 39 ef c5 d6 3b 18 8d e7 bb 27 6a 08 3c
       0.00019875981 0.0065543572 -0.00706638 0.00832609
0001f0 3a 07 b2 bb e5 7d 14 bd ad a4 91 bc 03 f4 2a 3c
       -0.0054329904 -0.036252875 -0.017778719 0.0104341535
000200 ed 8b b2 bb 98 fc 3b 3d a6 f6 19 3d 4b d4 46 bd
       -0.0054488094 0.04589519 0.037588738 -0.048542302
000210 5a df bc 3c 2b 55 1b 3d 88 cf c3 3c f5 14 46 bd
       0.023055721 0.03792302 0.02390267 -0.04835983
000220 2e ff d5 3c 57 dc 46 3c 76 9f 0a bd f7 3c 8c bd
       0.026122656 0.012137494 -0.03384348 -0.068475656
000230 3a 8a 32 bc 4f 34 dd 3c e0 d6 47 3c e4 bf f1 bc
       -0.010897214 0.027002482 0.012197226 -0.029510446
000240 5f 5e d5 bd 1b 95 4e 3e 4b 1a 04 3d 69 e3 09 3e
       -0.104183905 0.20174067 0.032251637 0.13465656
000250 09 bf 9f bd 82 6c 8d 3c 9e 13 bf 3d 0b f5 e2 3d
       -0.07800109 0.017263655 0.093299136 0.110818945
000260 62 e3 05 3b d6 0b e9 bd d5 59 ea 3d a9 e7 67 bd
       0.002042972 -0.11379211 0.11442915 -0.056617413
000270 de f7 aa 3e 50 a4 0c 3e 26 a8 eb 3c df 9c 01 3c
       0.33392233 0.13734555 0.028766703 0.007910936
000280 07 62 36 3d c5 af 49 3e a4 6d 15 3c 7f 08 37 3d
       0.04452708 0.19695957 0.009120379 0.044685837
000290 93 10 0d 3d 4d a9 ed bc f0 2c 08 3d 84 03 d3 bd
       0.034439635 -0.029011393 0.03324598 -0.10303405
0002a0 d7 a3 ce bc 0d 5e 24 3d 52 0a 5a bd d0 de d2 3d
       -0.02522461 0.040128756 -0.0532325 0.10296404
0002b0 d0 89 98 3d 3a 6e f4 3b 78 79 18 bb 4d 52 39 3d
       0.07448161 0.007459429 -0.002326576 0.045244504
0002c0 17 a8 1b 3d 8f 4d 03 3d 60 3d 52 3e 05 e2 c6 3c
       0.0380021 0.032056388 0.20531225 0.024277696
0002d0 25 3b b4 bc e2 4c 0f 3d 49 7f 10 3d 4a 52 51 bd
       -0.022000859 0.03498543 0.03527764 -0.051103868
0002e0 0d 54 d0 bc f3 4d a5 3d 47 1a 77 3c 8e 3c 21 bc
       -0.025430704 0.08071508 0.015081949 -0.0098410975
0002f0 8d 20 06 3d bb 46 07 3e d4 02 d2 3d 8b 1d de bc
       0.032745887 0.13210575 0.10254446 -0.027113697
000300 3e 02 67 bd 8c 7f ef bc eb 00 0b bc 8a c5 78 3d
       -0.056398623 -0.029235624 -0.008484106 0.060735263
000310 f4 2f 02 bd 8e d5 c5 bc 36 33 5f bd 63 b2 75 3b
       -0.031784013 -0.024149682 -0.054492198 0.003749036
000320 89 c0 91 bc 65 a9 a9 3b 52 00 34 bd 44 2c 73 3c
       -0.017792003 0.005177664 -0.043945618 0.014842097
000330 66 4f e6 b9 39 d1 99 3c f3 49 85 3c 21 7b d2 3c
       -0.00043928175 0.018776523 0.016270613 0.025693478
000340 ed 03 62 ba 47 4b 3d bd bf 1c ea 3c 1c c7 a9 3d
       -0.0008621801 -0.04621437 0.02857816 0.0828993
000350 a8 bd 0a 3c 6e 59 94 3d f1 7c 8f 3d b0 b1 dc bc
       0.008468069 0.0724362 0.070062526 -0.026940197
000360 d1 a7 20 bd cc 5f 63 3c 5e c4 c9 bc 19 89 ce bc
       -0.039222542 0.01387782 -0.024629768 -0.025211858
000370 59 2b a3 3d 7d 44 ed bc db 4f b9 bc 85 8b 6b 3c
       0.07967252 -0.028963322 -0.022621086 0.014376526
000380 45 08 2c 3d 68 a4 56 bd 4e 7e 1c 3d 80 93 2d bd
       0.042000074 -0.052402884 0.03820639 -0.042376995
000390 89 a9 11 bd 88 02 2d bd 7f 82 ec bb 99 d7 c2 3c
       -0.035562072 -0.042238742 -0.007217705 0.023784446
0003a0 5f 13 f5 bc 0b b2 54 bb f7 b6 43 bc e3 18 70 3d
       -0.029916463 -0.0032454755 -0.011945478 0.058617484
0003b0 ba 25 4e bc 92 1d 4a bd 99 8f 2a bd b7 ed ef 3c
       -0.012582237 -0.049344607 -0.04164085 0.029288156
0003c0 53 6e d2 3c 0e c6 36 3d 7b 98 94 3c 1e ad 88 bd
       0.025687372 0.044622473 0.018139115 -0.066736445
0003d0 01 c9 8d bd c1 d3 9d bd 7b 3e 17 3e c8 7d 97 3b
       -0.06923104 -0.077064045 0.14769928 0.0046231486
0003e0 d9 5a 11 bd 4a 37 75 3d 46 94 91 3b 83 f3 85 3d
       -0.03548703 0.05986718 0.0044427244 0.06540587
0003f0 f5 77 39 bd 4b dc a2 3b d4 d1 15 bd 3f 27 d9 3a
       -0.045280416 0.0049701086 -0.03657706 0.0016567482

conv2.bias f4 [32]
000000 95 d4 da bc 28 4f 02 3d cb ff f8 3c 40 05 00 3d
       -0.026712695 0.03181377 0.03039541 0.031255007
000010 fb 4f 02 bd 67 85 e8 bc 2f 9b 15 3b f3 51 bc bc
       -0.031814557 -0.028383924 0.0022828092 -0.022988295
000020 c9 50 d9 bc 91 3e 16 bd 3f a2 dc 3b ea 66 d4 3c
       -0.02652778 -0.03668076 0.0067332084 0.02592798
000030 03 ab 2a 3d de 57 b3 3c 41 24 c0 3c ce 88 0c 3d
       0.041666996 0.021892484 0.023454787 0.034310155
000040 68 6c 6a bb be 45 bf 3c 59 a6 b3 bc 9c 9d 30 3d
       -0.0035770182 0.023348685 -0.021929907 0.043119058
000050 90 bf b8 3c 0c 41 ec b9 8c cc 01 bc 05 0a 8e bc
       0.022552282 -0.0004506189 -0.007922303 -0.017338762
000060 2d 5e 1b bc b0 58 20 bc 98 7f 04 3d 43 3c a1 3c
       -0.0094829025 -0.00978677 0.032348245 0.019682055
000070 b9 c6 77 bc d7 ae 37 3d 90 2c 32 3d 68 79 83 3d
       -0.015123063 0.044844475 0.04349953 0.06419641

conv3.weight f4 [48, 32, 3, 3]
000000 0c f1 23 bd a4 2d 39 bd 7d 49 a2 3b d4 d9 80 3d
       -0.040024802 -0.045209542 0.004952608 0.062915474
000010 d3 b4 bf 3d aa 4b 67 3d ff 8e 82 bd 62 95 bd bd
       0.09360661 0.056468643 -0.063749306 -0.09257008
000020 3e a9 7b bd 7b 69 7c bb 2d 1f da bc ba d7 34 bd
       -0.0614407 -0.003851502 -0.026626194 -0.044151045
000030 5f 7d 91 3c 7a 34 86 3a fe de 67 3d 7d d0 80 bc
       0.017759977 0.0010239028 0.056609146 -0.015724415
000040 54 15 71 bd 78 ad 49 bd 2a 26 e2 3b 17 7e 99 3d
       -0.05885823 -0.0492377 0.006901522 0.07494753
000050 82 f5 e5 bd 72 09 ae bd cc 4e ce 3d ca 03 6c bd
       -0.112284675 -0.08497895 0.10073623 -0.0576208
000060 98 a1 d5 3c d3 62 ac 3d 25 68 05 bd fe d8 3b 3d
       0.02607803 0.08417287 -0.032570023 0.045861237
000070 56 d0 7f 3d 1f e6 d6 bc 4b 75 ad 3c a9 a1 b7 3b
       0.062454544 -0.026232777 0.021174094 0.005603988
000080 84 6f d5 3c 4f ae ce 3c 59 2e 10 bd aa ea 78 3c
       0.026054151 0.025229601 -0.03520045 0.015192667
000090 00 51 8c bc 47 2c a1 3c 5a 2d 5f bc d4 b1 67 bc
       -0.017128468 0.019674433 -0.0136216525 -0.014141519
0000a0 8e db bd bc 92 7a e1 3c d5 64 2e 3d a9 08 ae bc
       -0.02317598 0.027524266 0.04257663 -0.021244364
0000b0 94 ea a5 3c ac 7f f7 bc d3 77 97 bc 24 7c 71 bc
       0.020253457 -0.030212246 -0.018489754 -0.01473907
0000c0 5a 05 c4 3c cc b8 ee 3c 82 03 11 bd 63 3c f5 bc
       0.023928333 0.029140852 -0.035403736 -0.029936021
0000d0 f3 75 1d bd 0c 82 ce bc 5f c9 28 bd ce f1 43 3d
       -0.038442563 -0.025208496 -0.041207667 0.047838025
0000e0 fa 31 4c bb a3 c2 fe 3c 74 dd 30 3d 40 b6 17 3c
       -0.0031157718 0.03109867 0.043179944 0.00925976
0000f0 5a 8e 4f 3d 9d 20 3c bd 37 dc 97 3c bd 5f 92 3c
       0.050672866 -0.04592954 0.018537624 0.017867917
000100 09 26 80 3d 77 91 c6 bb 70 84 c2 bc 05 7d 5d 3d
       0.06257255 -0.006059821 -0.023744792 0.054074306
000110 60 6c 6d bc bd fc 28 3d 2c 77 60 39 53 68 10 3d
       -0.014491171 0.041256655 0.000214067 0.03525574
000120 1c 40 8c 3d 29 b4 11 3d 32 1a 0b bd 3a 94 11 bd
       0.068481654 0.035572205 -0.03396053 -0.03554175
000130 1e 19 8b 3d d8 91 10 bc 7e 25 b9 bb 17 22 2d 3d
       0.067919 -0.008823834 -0.0056502214 0.04226884
000140 6c c3 2c bc 7e 7d 13 3d 39 c6 50 3d a2 f8 15 3d
       -0.010544639 0.03600835 0.05097029 0.036614068
000150 65 c0 31 bd e4 e6 1f 3d 0e 67 ff bc 8f c6 dc bc
       -0.043396372 0.039038554 -0.03117707 -0.026950149
000160 2d 79 5d bd 25 5a fb 3b 1f 64 43 3d 72 05 48 3c
       -0.05407064 0.007670658 0.047702905 0.0122083295
000170 4b 75 7e 3d 66 6d 25 b8 96 8f 84 3b d8 f8 bc 3c
       0.062123578 -3.944095e-05 0.004045437 0.023067877
000180 bc 91 87 bc 04 cb 57 bd cd bb 99 39 18 f8 23 3d
       -0.016548984 -0.052683845 0.00029322357 0.040031523
000190 a6 07 c2 3b 60 6a 1e bc 31 1e 07 bd 40 7c 51 bd
       0.005921322 -0.009668916 -0.032987777 -0.051143885
0001a0 2d aa 47 bc b8 b4 3d 3d ab 4c 6c 3d 4b c8 16 3d
       -0.012186569 0.046314925 0.057690304 0.036812108
0001b0 e7 95 3e 3d d5 03 2d bd 4f 46 28 3d db df bc 3c
       0.046529677 -0.042239983 0.041082677 0.023055961
0001c0 df 6b 7f 3d 96 21 2e 3d c6 d9 76 3d 55 f4 de bc
       0.062358733 0.0425125 0.06026628 -0.027216116
0001d0 67 39 03 3d 4d 61 26 bd ca db 0b bd 5d 5f 71 3b
       0.032037165 -0.040620137 -0.034145154 0.0036830523
0001e0 4c 68 51 bd a0 16 a6 bc 1c c5 a6 bb 5c 3d b4 3c
       -0.051124856 -0.02027446 -0.0050894152 0.022001915
0001f0 1f f5 a7 3b 60 fa 77 bc 87 91 0d ba 69 e1 b7 bb
       0.0051256563 -0.015135378 -0.00054004084 -0.005611588
000200 dc fd 28 bc d1 13 05 3c fe 2c 15 bc 30 e5 0a bb
       -0.010314431 0.0081224 -0.009104965 -0.0021193735
000210 f0 f2 33 bd 9d 46 9b 3c cc 80 85 bc 26 e3 00 3d
       -0.043932855 0.01895457 -0.016296767 0.031466626
000220 db a5 3c bd 7a 98 00 3b 07 aa 25 bd de ce fb 3b
       -0.04605661 0.0019622133 -0.040445354 0.0076845726
000230 b6 ba 39 3d 8c 9c 06 3c 56 4a 3e 3d 0d f1 82 3c
       0.045344077 0.008216035 0.04645761 0.015984083
000240 2d b7 b7 3b fd 89 89 3d fa 6b 90 3d 92 f4 95 3d
       0.005606553 0.06715772 0.07051845 0.07322039
000250 fb fd 8c 3d d3 c1 2b 3b d5 70 6a 3c 7b 53 09 bd
       0.068843804 0.0026208058 0.014309128 -0.03352688
000260 bd ed 1f 3d 31 a6 10 3d 35 14 23 bd 8c 59 3c bd
       0.039045084 0.035314742 -0.039814193 -0.045983836
000270 b6 b9 14 3d 23 07 88 bc 0a d8 2f bd 49 8f 7b 3c
       0.03630992 -0.016604966 -0.04293064 0.015353986
000280 33 84 36 3d 8b 35 5f 3d 32 0d 2d bd 53 83 7a bc
       0.04455967 0.054494422 -0.042248912 -0.015290099
000290 47 00 a4 3b 3d b5 83 3d 66 13 87 3d 61 a6 0c bd
       0.005004916 0.06431053 0.06595497 -0.03433836
0002a0 1a 26 48 3d e9 9f f2 ba d8 02 cd 3c 45 af c3 3c
       0.04886446 -0.0018510792 0.02502577 0.023887286
0002b0 fc 07 1d bd 83 2e b6 3c 97 c6 7e 3c d7 43 a8 bc
       -0.038337693 0.022238975 0.015550277 -0.020540161
0002c0 63 2a 65 3d a3 37 df 3c 6d 79 42 bd 4a b0 08 bb
       0.055948626 0.02724821 -0.047479082 -0.002085703
0002d0 e8 83 30 bd a0 98 03 bc af 2a 29 3d a1 2e c7 b8
       -0.043094546 -0.008031994 0.041300472 -9.497745e-05
0002e0 3a 9e ea bc df cf 36 3d 02 4d 06 3d 3d a9 4e 3c
       -0.028639901 0.044631835 0.032788284 0.012613592
0002f0 a5 a0 54 bd 23 47 4c ba f7 fe 80 3d f5 41 e9 bc
       -0.051911015 -0.00077925826 0.06298631 -0.028473834
000300 17 d5 22 3d 79 40 9d 3b 64 a9 74 3d 49 a1 44 3d
       0.039754 0.0047989455 0.059731856 0.048005376
000310 1e dd 36 3a 8f 5b 41 bd b9 f0 10 3d 24 84 9d 3d
       0.0006975698 -0.047206458 0.03538582 0.076912194
000320 ae e9 e1 3c 1a 45 00 bd 08 6c 8a 3d d0 03 60 3d
       0.027577247 -0.0313159 0.067588866 0.054691136
000330 82 af 7d 3b a5 78 88 3c 12 d8 99 3c cf b2 83 bc
       0.0038709347 0.01665909 0.018779788 -0.016076474
000340 97 4a 42 bd e6 eb 70 3c ac b6 2d 3d 13 89 39 bd
       -0.047434416 0.01470468 0.042410538 -0.04529674
000350 e7 d7 ac bc 27 35 3c 3d 7f 08 f4 3c c3 95 4e bd
       -0.021099044 0.045949128 0.029789208 -0.050435793
000360 43 90 66 3d 1e 78 cb 3d 8a ae 8b 3d 62 4f 29 3d
       0.056289922 0.0993502 0.068204 0.04133547
000370 ec 19 44 b9 6f 98 2e 3d 9e 4a 12 bd 2e 9c 5e 3c
       -0.00018701673 0.04262584 -0.03571569 0.013587041
000380 54 37 16 3d b3 2d 2a 3d 83 fb c4 3c cd ea c4 3b
       0.03667386 0.04154749 0.024045711 0.0060094357
000390 bf 49 5d 3d fc 48 3b 3d 90 5d 40 3d c9 3d ea 3c
       0.054025408 0.0457239 0.04696423 0.028593915
0003a0 5f 09 c2 3c 1a 6d 43 bd 2c 03 9d 3c eb 0f 4c bd
       0.02368611 -0.04771147 0.019166552 -0.049819868
0003b0 0b 81 85 3d 2d 25 02 bd 85 7b 2e bd d3 3c e9 bc
       0.065187536 -0.031773735 -0.042598266 -0.028471386
0003c0 a1 ee 1c bd 1d eb b3 3c 56 10 36 bd 21 04 f3 bc
       -0.03831351 0.021962697 -0.044449173 -0.029665055
0003d0 45 44 3e 3c 75 81 79 3d 03 1c 72 bc c9 06 11 bd
       0.011612956 0.060914475 -0.014777186 -0.03540686
0003e0 e4 2e 00 3d 44 c1 79 3d f4 7d 5e 3c 6f 35 51 bc
       0.03129472 0.060975328 0.013579834 -0.012769087
0003f0 21 32 e7 bc f7 00 81 bd 48 b2 c5 bd 7b 1a 83 3c
       -0.028222146 -0.06299012 -0.09653145 0.016003838

conv3.bias f4 [48]
000000 64 07 6b 3d 6b 03 0c bc 59 4b 16 bd de 00 72 bc
       0.057380095 -0.008545737 -0.03669295 -0.014770715
000010 61 5f 98 bc ba 24 b3 bb a6 0f 99 3c 29 4f 5a bc
       -0.018600168 -0.0054670246 0.01868422 -0.013324537
000020 d5 2a f0 3c 7e 33 7d 3d b3 bf e9 3c df 0c 44 3d
       0.029317299 0.061816685 0.028533792 0.047863837
000030 b2 25 33 bc a6 d7 02 3d 62 46 df bc 2b 09 be 3c
       -0.01093428 0.03194394 -0.02725524 0.023197731
000040 48 be 29 3a 9f b2 03 bd 85 9e 12 bd c2 94 23 3d
       0.00064751925 -0.03215277 -0.035795707 0.03993679
000050 70 06 68 3d 2f a1 d5 3c 3b 3d 78 bb 68 a2 c3 bc
       0.056646764 0.026077835 -0.0037878293 -0.023881152
000060 fb 62 9a 3a b0 d3 b7 3c 0e 8d b4 bc b0 00 54 3a
       0.0011778766 0.022439808 -0.022039916 0.00080872606
000070 31 9f 2e 3c 0d c5 ef bb 0a 64 90 bc 0f 0a 8f bc
       0.010658071 -0.0073171915 -0.017625827 -0.017460851
000080 07 a1 eb bc 7e b6 30 3d 35 94 17 bc b2 92 0f bc
       -0.028763307 0.043142788 -0.009251644 -0.008763002
000090 42 67 e9 bc dc 2d 3a 3d 4c c6 4b 3c 58 80 56 3d
       -0.02849162 0.04545389 0.012437414 0.052368492
0000a0 1e cb fb 3c 78 cf 44 3d 7d 9d 2a bb f3 56 8f bc
       0.030736502 0.04804942 -0.0026033812 -0.017497515
0000b0 c3 76 13 bd e6 14 65 bc 24 8c 11 bd ec b0 82 3b
       -0.036001932 -0.013982033 -0.03553404 0.003988376
